FrameworkForKotlin/app/src/main/assets/ANNModel2.tflite (tflite, 23112 bytes, 7 tensors)

sequential_1/dense_5/MatMul;sequential_1/dense_5/Relu;sequential_1/dense_5/BiasAdd f4 [120]
00000000: 7472 2cbe 76cc 903f 0bce 89bd f148 45bf
00000010: 673e 4cbd 7ae9 733f d965 2abe cabb 5bbf
00000020: df7c 0a3d d73b 7a3f 6cc0 1bbe 6659 9bbe
00000030: 5c3b 4e3f 1f5b a3be 3579 85be ccca 9e3f
00000040: 9714 8a3f 16a5 ac3e 6e18 163e 26a8 6dbf
00000050: 672e b2bf adff 203f 3a81 8f3e 0fd9 633f
00000060: 422c d83e 2431 033e 89ad 72bd 0ecf 83bf
00000070: 361c e4bb 520b bfbd 468f 7d3f c86e 97be
00000080: c428 2ebf 9935 3e3f c8ab 823e 6ea4 893e
00000090: c291 39be 7b69 1ebf b1a5 1bbe ea1f a1bf
000000a0: 0853 75bf 0053 49bf a21d 81bf bf2a 3abf
000000b0: 06ca c63f 399a ad3e 3d60 a93e 7856 1fbe
000000c0: 3223 ffbe 3cb7 55bf 50b0 34be 3880 8ebf
000000d0: fb99 093f 2b81 c4be e3a0 7cbf 387f 103f
000000e0: 17cf 853f cc9e 9ebf 8e49 dfbf b525 37bf
000000f0: 7c95 203f 22ed 74bf 93e5 43be 198a 9bbf
00000100: 140b 753d 618e 6d3e f320 10bf 2871 763f
00000110: 357f 1b3e 762f 10bf 76af 1f3d b1af 863f
00000120: 6550 dabe 9b90 01bf 2a6e 1fbe 777e f33e
00000130: 7408 afbe c648 0fbf 58db 29bf 4c6c 21bf
00000140: a434 f23f 2253 ea3c b8e4 92be 6fa4 61bf
00000150: e5f3 efbe d5e5 8ebf aff1 ae3f dc18 083f
00000160: 0e50 5dbf dee8 833f 6430 3a3e a42f 4f3e
00000170: 5e31 f43e ac07 863f 8aba c2bf da82 d03e
00000180: 442a b2be 3cde a4bf 1b7d 8abf d159 38bf
00000190: 6e50 2abf b5a5 c0bf ae9c 753e 3476 423c
000001a0: e51f 9cbf 29d0 f1bd 95a2 adbf aacf 98bf
000001b0: 6f2d 0e3e 4d85 f6be d2d0 3e3e 00a1 92bd
000001c0: 568c 22bf 2da2 4cbf 4199 ddbe f259 a13c
000001d0: 4ac4 65be 085b 933c bfc6 8e3e 36f6 aebe
-0.16840535 1.1312397 -0.06728753 -0.77064425 -0.0498642 0.9527813 -0.16640414 -0.8583342
0.033810493 0.9774756 -0.15210122 -0.30341643 0.80559325 -0.31905457 -0.26069036 1.2405639
1.0787534 0.337197 0.14657757 -0.928347 -1.3920411 0.6289013 0.2802828 0.8900308
0.42221266 0.12811714 -0.059247527 -1.0297563 -0.006961371 -0.09328331 0.9904674 -0.29576707
-0.68030953 0.74300534 0.25521684 0.26883262 -0.18122008 -0.618797 -0.15199925 -1.2587864
-0.9582982 -0.7864227 -1.0087168 -0.72721475 1.5530403 0.33906725 0.33081236 -0.15560329
-0.4983154 -0.8348272 -0.17645383 -1.1132879 0.5375058 -0.38379797 -0.98682994 0.5644412
1.0453824 -1.2392211 -1.7444322 -0.7154191 0.62728095 -0.95674336 -0.19130544 -1.2151519
0.059825018 0.23198844 -0.56300277 0.9626641 0.15185244 -0.5632242 0.038985692 1.0522367
-0.4263946 -0.50611275 -0.15569368 0.47557423 -0.34186137 -0.5597042 -0.66350317 -0.6305587
1.8922315 0.028604094 -0.28690124 -0.8814153 -0.46865764 -1.1163889 1.3667506 0.5316293
-0.8645028 1.030544 0.18182522 0.20233017 0.47693914 1.0471091 -1.5213177 0.40724832
-0.3479787 -1.288032 -1.0819429 -0.7201205 -0.66528976 -1.505057 0.2398555 0.011869002
-1.2197233 -0.118072815 -1.3565241 -1.1938374 0.13884519 -0.48148575 0.18634346 -0.071596146
-0.63495386 -0.7993496 -0.43280986 0.01969621 -0.2243816 0.017987743 0.27886006 -0.3417222

sequential_1/dense_7/BiasAdd/ReadVariableOp f4 [30]
00000000: 0a9e 39bf e14c 58be 4846 bdb9 a573 40bf
00000010: 4984 4f3e 5b32 5b3e c64e c1be 3c56 c1be
00000020: 9199 75bf a48c 273e 15e7 efbd c92e a1be
00000030: 8fcf 213d 9e50 5f3e a464 233e afb5 b2bd
00000040: acc2 1bbe abaf 06bf dabf 7d3f 97e8 d9be
00000050: ed94 7cbe 8644 9ebe 78db ffbe 312a 9abe
00000060: dc62 fb3e 4dd1 1d3e 4e1d 3ebf ea92 b53e
00000070: 58ec 883f ee58 b9be
-0.72506773 -0.21123077 -0.00036101253 -0.7517646 0.20265307 0.21405928 -0.37755412 -0.37761104
-0.9593745 0.16362244 -0.11713997 -0.31481007 0.039504584 0.21808097 0.1595636 -0.0872606
-0.1521098 -0.526118 0.9912087 -0.42560264 -0.24666186 -0.30911654 -0.4997213 -0.30110314
0.4909886 0.15411873 -0.74263465 0.3546365 1.0697126 -0.3620066

sequential_1/dense_6/BiasAdd/ReadVariableOp f4 [120]
00000000: 6eec 27be f2bd 1cbf 0297 093e da14 82bd
00000010: 719b 033e 0962 613e 9bf4 bfbd a5da 43bd
00000020: 3e5d d5bc 1f2b 103f c57c a9bd 601e 243b
00000030: 34c4 bdbc 892f b53d 5c96 8abd fb8e a4be
00000040: 8af4 cfbe d79c dcbc fce3 ad3b 48dd e2be
00000050: af13 5cbd 32fb 73bd 63f1 4d3e c177 c53d
00000060: 4b6b bdbd 1318 94be d738 aebb 8fc5 26bd
00000070: 5f13 853c a83d 60bd 89a3 14bf a5e4 3cbe
00000080: 30b1 a0bd d3fd 973f 9650 203c 1cbf 55bd
00000090: 5d53 433e b482 0d3e b44b f63e 0094 a73e
000000a0: fc1a a9bd 609d 383f 86f3 8a3e 6bab a2bd
000000b0: d7f2 fe3e 9edc 953f a930 0bbf 1077 92bd
000000c0: 0b96 46be 49b5 263f 0d1e 97bd 4275 16be
000000d0: b2c9 e3be 8198 d7be ce29 f6be abfb 83bd
000000e0: 40e5 13bd 3e75 22bf 47db 8dbe 2ac2 68bd
000000f0: cefa 66bb f4a1 68bc 7f00 38bd d70b efbc
00000100: 3d17 95bd 4561 8cbd 8f5a 64bd 7d40 c5bd
00000110: 3724 483f 94d3 273d 8dbd 28bd 2b1b 843f
00000120: 62be 983e ae77 fbbd bec6 703e 84e2 7ebd
00000130: 5350 6a3f a4d7 cfbe 0ecf 44be 69ce 36bd
00000140: dc1e 04be b743 1e3f 01e5 14bf 8807 38bf
00000150: 0f9d 4c3f e3e9 8e3f 0ac9 22bf 31ac da3b
00000160: 32df ab3f 72ea b53e 8b6b 5b3e b8a3 463f
00000170: 2b1b 8cbd 8396 b4bd a067 c6bd 03d9 353c
00000180: 1481 6c3f ac3a 01be 138a 37be 44ee 5abd
00000190: 175c 993e 9ab5 cdbd 5aee 2dbf 0be1 1fbe
000001a0: ee70 513f c81f 493f a377 873e 3a12 acbd
000001b0: 6da3 613f 293a 363f 0e16 a13e b799 9abd
000001c0: 5383 fabc 65e8 26bf 2759 4dbd 190a 363f
000001d0: f8b9 e33e b62c 36bf 1660 ccbe f7f6 b2bd
-0.16398785 -0.61227334 0.13436511 -0.06351633 0.12852265 0.22010054 -0.09372827 -0.047815938
-0.026045438 0.563158 -0.08275751 0.002504252 -0.023164846 0.08846957 -0.0676696 -0.32140335
-0.40616256 -0.026930256 0.005306719 -0.4430945 -0.05372971 -0.05956573 0.20111613 0.09641982
-0.0924898 -0.28924617 -0.0053168344 -0.04071575 0.016244588 -0.0547463 -0.58062035 -0.18446596
-0.07846296 1.1874336 0.009784838 -0.05218421 0.1907477 0.1381939 0.48104632 0.32730103
-0.082571 0.72115135 0.2713892 -0.07942852 0.49794647 1.1707952 -0.54371125 -0.071516156
-0.19393174 0.6512037 -0.073787786 -0.14693168 -0.4448982 -0.4210854 -0.4807877 -0.06444486
-0.0361073 -0.6346015 -0.27706358 -0.056825794 -0.0035244706 -0.014198769 -0.044922348 -0.02918045
-0.07279823 -0.0685449 -0.055750426 -0.09631441 0.7818026 0.04097326 -0.041196395 1.0320791
0.2983275 -0.122786865 0.23513314 -0.06222774 0.91528815 -0.40594208 -0.1921961 -0.04463044
-0.12902397 0.61822075 -0.5816193 -0.7188649 0.7992715 1.1165127 -0.6358801 0.006673359
1.3427489 0.3553043 0.21427743 0.77593565 -0.068411194 -0.0881777 -0.09687734 0.011099103
0.9238446 -0.12620038 -0.17923765 -0.053449884 0.2995307 -0.100444034 -0.6794182 -0.15613191
0.8181294 0.7856412 0.26458463 -0.08401914 0.8813999 0.71182495 0.3146214 -0.0754885
-0.030580198 -0.65198356 -0.05013385 0.7110916 0.4447782 -0.71161973 -0.39917058 -0.08738511

sequential_1/dense_4/MatMul1 f4 [9, 9]
00000000: a4fd c8be b829 693e 621f a33e e7e4 9a3e
00000010: 77b5 fd3e 56e4 cbbf 5b75 85bf 4e3e d2be
00000020: 19ab 773f b500 b53e e114 45be 76b7 94be
00000030: 0ff0 8f3f ff9c e23e 9534 943f 716d 8ebf
00000040: 94c3 df3e 78dc 20bf e924 193e f2d6 bebe
00000050: e0a2 283c 8b9e 07bf 106c 183f 5d4f 45bf
00000060: e9be a93e 70c1 a2be a09d 1d3f f43a 4b3f
00000070: d5c1 19bf c5db 2c3f f00b 8a3e 1800 5d3e
00000080: 102b 97bc d2ad 47bf 20d4 22bd 1e70 e23c
00000090: 1c7d 883e ffa6 363e b0fb b2be 1f03 973f
000000a0: ca54 f73d 0c9f 8cbf 9f36 babe 8095 1abe
000000b0: 1300 bebf 62d2 543f 7009 5dbe 2170 f2be
000000c0: 6e0a 41be 040f 49be 4904 0bc0 9acc a9be
000000d0: 6016 463d 03b8 053e a5f5 2fbf 49b8 77bd
000000e0: a6cb f3be 2fe0 8a3f ffa5 26be dc09 a3bc
000000f0: 0920 9e3f 7eac bd3e 0978 3abe a01c bdbe
00000100: 45aa 9bbc 3ddf 543f 1e01 bc3f 9ca8 93be
00000110: e355 e93e f257 3abf a06d 833c ee12 673e
00000120: 9cc6 c8be a945 82be 6f22 6b3f 3c9c 8dbf
00000130: a911 023e 21a9 6abe 7ede b03e 04a2 b03e
00000140: 7ebe a4bf
-0.39256012 0.2276982 0.3185988 0.30252764 0.4955251 -1.5929058 -1.0426439 -0.4106316
0.9674545 0.35352102 -0.19246246 -0.2904622 1.1245135 0.44260404 1.1578547 -1.1127149
0.43703902 -0.6283641 0.14955486 -0.37273365 0.010292739 -0.5297629 0.5953989 -0.77074224
0.33153465 -0.31788206 0.6156864 0.7938683 -0.6006139 0.6752284 0.26962233 0.21582067
-0.018453151 -0.77999604 -0.03975308 0.027641352 0.2665795 0.17837141 -0.34957647 1.1797827
0.12076719 -1.0986037 -0.36369798 -0.15096092 -1.4843773 0.8313352 -0.21585631 -0.47351173
-0.18851635 -0.19634634 -2.1721365 -0.3316391 0.048361182 0.13058476 -0.687342 -0.060478482
-0.4761631 1.0849665 -0.1627426 -0.019902162 1.2353526 0.37045664 -0.18209852 -0.36935902
-0.01900209 0.83153135 1.4687841 -0.28839576 0.4557334 -0.72790444 0.016043484 0.22565815
-0.39214027 -0.2544377 0.91849416 -1.1063304 0.1270205 -0.2291608 0.34544748 0.34498608
-1.2870634

sequential_1/dense_5/MatMul i1 [120, 9] scale=0.022012029 zero_point=0
00000000: 0a16 08d7 1017 20e9 f90e 0608 22e2 e8f7
00000010: 1e0c 00e9 fc07 c65d 0c0a 090a f5f6 f1fa
00000020: f9f6 1103 0601 fefe f5fe 0309 0600 03f9
00000030: 2c06 12e1 0f0b e90d 01f9 fff6 08ff f8e9
00000040: ff07 f80b fa06 e506 0efb f8f6 12fd fa09
00000050: 1213 fdf3 1009 0aeb 10fa fc09 f902 f505
00000060: 00fe 02f9 03f8 01fe 05f8 fd02 f908 e80c
00000070: 06fb f51b fdfa 00f2 0b00 1be5 fcfd fc09
00000080: fff8 f50a f9fd 0508 01f8 0902 fd06 0efe
00000090: 0615 f512 2203 f10b fff6 0af6 0e02 0dff
000000a0: 04fd 07ee e8fb 0dea fa19 151f 29fd fceb
000000b0: 0118 0b26 00f5 f3ea eefd f4f6 040c fff2
000000c0: 080f 0ded 04fb 06f4 03fa 05f9 0809 0fea
000000d0: f9f0 0fe4 1927 38f3 faff ecf1 1a2c 311c
000000e0: 0112 26fe ea03 0316 0ff9 0fed fef4 05f2
000000f0: 090a 0d03 f607 f0e8 fff6 edf8 f808 02fe
0.22012028 0.48426464 0.17609623 -0.9024932 0.35219246 0.50627667 0.7043849 -0.50627667
-0.1540842 0.3081684 0.13207218 0.17609623 0.748409 -0.6603609 -0.5282887 -0.19810826
0.6603609 0.26414436 0.0 -0.50627667 -0.088048115 0.1540842 -1.2766976 2.0471187
0.26414436 0.22012028 0.19810826 0.22012028 -0.24213232 -0.22012028 -0.33018044 -0.13207218
-0.1540842 -0.22012028 0.3742045 0.06603609 0.13207218 0.022012029 -0.044024058 -0.044024058
-0.24213232 -0.044024058 0.06603609 0.19810826 0.13207218 0.0 0.06603609 -0.1540842
0.9685293 0.13207218 0.3962165 -0.68237287 0.33018044 0.24213232 -0.50627667 0.2861564
0.022012029 -0.1540842 -0.022012029 -0.22012028 0.17609623 -0.022012029 -0.17609623 -0.50627667
-0.022012029 0.1540842 -0.17609623 0.24213232 -0.13207218 0.13207218 -0.59432477 0.13207218
0.3081684 -0.11006014 -0.17609623 -0.22012028 0.3962165 -0.06603609 -0.13207218 0.19810826
0.3962165 0.41822854 -0.06603609 -0.2861564 0.35219246 0.19810826 0.22012028 -0.46225262
0.35219246 -0.13207218 -0.088048115 0.19810826 -0.1540842 0.044024058 -0.24213232 0.11006014
0.0 -0.044024058 0.044024058 -0.1540842 0.06603609 -0.17609623 0.022012029 -0.044024058
0.11006014 -0.17609623 -0.06603609 0.044024058 -0.1540842 0.17609623 -0.5282887 0.26414436
0.13207218 -0.11006014 -0.24213232 0.59432477 -0.06603609 -0.13207218 0.0 -0.3081684
0.24213232 0.0 0.59432477 -0.59432477 -0.088048115 -0.06603609 -0.088048115 0.19810826
-0.022012029 -0.17609623 -0.24213232 0.22012028 -0.1540842 -0.06603609 0.11006014 0.17609623
0.022012029 -0.17609623 0.19810826 0.044024058 -0.06603609 0.13207218 0.3081684 -0.044024058
0.13207218 0.46225262 -0.24213232 0.3962165 0.748409 0.06603609 -0.33018044 0.24213232
-0.022012029 -0.22012028 0.22012028 -0.22012028 0.3081684 0.044024058 0.2861564 -0.022012029
0.088048115 -0.06603609 0.1540842 -0.3962165 -0.5282887 -0.11006014 0.2861564 -0.48426464
-0.13207218 0.5503007 0.46225262 0.68237287 0.9024932 -0.06603609 -0.088048115 -0.46225262
0.022012029 0.5282887 0.24213232 0.8364571 0.0 -0.24213232 -0.2861564 -0.48426464
-0.3962165 -0.06603609 -0.26414436 -0.22012028 0.088048115 0.26414436 -0.022012029 -0.3081684
0.17609623 0.33018044 0.2861564 -0.41822854 0.088048115 -0.11006014 0.13207218 -0.26414436
0.06603609 -0.13207218 0.11006014 -0.1540842 0.17609623 0.19810826 0.33018044 -0.48426464
-0.1540842 -0.35219246 0.33018044 -0.6163368 0.5503007 0.8584691 1.2326736 -0.2861564
-0.13207218 -0.022012029 -0.44024056 -0.33018044 0.5723128 0.9685293 1.0785894 0.6163368
0.022012029 0.3962165 0.8364571 -0.044024058 -0.48426464 0.06603609 0.06603609 0.48426464
0.33018044 -0.1540842 0.33018044 -0.41822854 -0.044024058 -0.26414436 0.11006014 -0.3081684
0.19810826 0.22012028 0.2861564 0.06603609 -0.22012028 0.1540842 -0.35219246 -0.5282887
-0.022012029 -0.22012028 -0.41822854 -0.17609623 -0.17609623 0.17609623 0.044024058 -0.044024058

sequential_1/dense_6/MatMul i1 [120, 120] scale=0.050214864 zero_point=0
00000000: fafe 0202 fefd 0207 00fb 0204 fc00 fefe
00000010: 02fc fc01 ff02 ff02 14f9 03ff 0001 fdfa
00000020: fd04 0bf6 fc09 10fb ebfb fd00 0502 01ff
00000030: 0302 fe06 03fc 0afe 0004 08d0 0308 0206
00000040: e306 fe02 fc04 0506 fe01 0108 fc02 05fe
00000050: f4fb fbf9 fdff fcfb f0fa 0103 fd08 0210
00000060: e8fd 07fd ff02 04fd 0302 0100 0104 fdf3
00000070: fdf6 f900 f505 fbfd 0b06 0cfe fef8 fefa
00000080: 00f5 00fe fffe 01fb 0304 0507 03ee fdfe
00000090: fb09 fe01 fdfe ee0f 05f5 f9fa 2302 ff0b
000000a0: 0c0f 0b03 f5f8 0702 050d 0203 f0fc 0601
000000b0: ff01 0b04 1a03 0103 1bed 17f9 df02 13fc
000000c0: 0ceb 0402 fefb 09e3 f8fe 02fe 03ff 0efa
000000d0: e100 06fd f8eb 0a09 05f6 07fb f800 1800
000000e0: fbfd 0300 edf7 0701 08e8 fa0b 06ff ec00
000000f0: fcf3 0b03 02fb f605 f603 fd04 0904 0003
-0.3012892 -0.10042973 0.10042973 0.10042973 -0.10042973 -0.1506446 0.10042973 0.35150406
0.0 -0.2510743 0.10042973 0.20085946 -0.20085946 0.0 -0.10042973 -0.10042973
0.10042973 -0.20085946 -0.20085946 0.050214864 -0.050214864 0.10042973 -0.050214864 0.10042973
1.0042973 -0.35150406 0.1506446 -0.050214864 0.0 0.050214864 -0.1506446 -0.3012892
-0.1506446 0.20085946 0.5523635 -0.5021486 -0.20085946 0.45193377 0.8034378 -0.2510743
-1.0545121 -0.2510743 -0.1506446 0.0 0.2510743 0.10042973 0.050214864 -0.050214864
0.1506446 0.10042973 -0.10042973 0.3012892 0.1506446 -0.20085946 0.5021486 -0.10042973
0.0 0.20085946 0.4017189 -2.4103136 0.1506446 0.4017189 0.10042973 0.3012892
-1.4562311 0.3012892 -0.10042973 0.10042973 -0.20085946 0.20085946 0.2510743 0.3012892
-0.10042973 0.050214864 0.050214864 0.4017189 -0.20085946 0.10042973 0.2510743 -0.10042973
-0.6025784 -0.2510743 -0.2510743 -0.35150406 -0.1506446 -0.050214864 -0.20085946 -0.2510743
-0.8034378 -0.3012892 0.050214864 0.1506446 -0.1506446 0.4017189 0.10042973 0.8034378
-1.2051568 -0.1506446 0.35150406 -0.1506446 -0.050214864 0.10042973 0.20085946 -0.1506446
0.1506446 0.10042973 0.050214864 0.0 0.050214864 0.20085946 -0.1506446 -0.6527932
-0.1506446 -0.5021486 -0.35150406 0.0 -0.5523635 0.2510743 -0.2510743 -0.1506446
0.5523635 0.3012892 0.6025784 -0.10042973 -0.10042973 -0.4017189 -0.10042973 -0.3012892
0.0 -0.5523635 0.0 -0.10042973 -0.050214864 -0.10042973 0.050214864 -0.2510743
0.1506446 0.20085946 0.2510743 0.35150406 0.1506446 -0.90386754 -0.1506446 -0.10042973
-0.2510743 0.45193377 -0.10042973 0.050214864 -0.1506446 -0.10042973 -0.90386754 0.75322294
0.2510743 -0.5523635 -0.35150406 -0.3012892 1.7575202 0.10042973 -0.050214864 0.5523635
0.6025784 0.75322294 0.5523635 0.1506446 -0.5523635 -0.4017189 0.35150406 0.10042973
0.2510743 0.6527932 0.10042973 0.1506446 -0.8034378 -0.20085946 0.3012892 0.050214864
-0.050214864 0.050214864 0.5523635 0.20085946 1.3055865 0.1506446 0.050214864 0.1506446
1.3558013 -0.9540824 1.1549419 -0.35150406 -1.6570905 0.10042973 0.9540824 -0.20085946
0.6025784 -1.0545121 0.20085946 0.10042973 -0.10042973 -0.2510743 0.45193377 -1.4562311
-0.4017189 -0.10042973 0.10042973 -0.10042973 0.1506446 -0.050214864 0.7030081 -0.3012892
-1.5566608 0.0 0.3012892 -0.1506446 -0.4017189 -1.0545121 0.5021486 0.45193377
0.2510743 -0.5021486 0.35150406 -0.2510743 -0.4017189 0.0 1.2051568 0.0
-0.2510743 -0.1506446 0.1506446 0.0 -0.9540824 -0.45193377 0.35150406 0.050214864
0.4017189 -1.2051568 -0.3012892 0.5523635 0.3012892 -0.050214864 -1.0042973 0.0
-0.20085946 -0.6527932 0.5523635 0.1506446 0.10042973 -0.2510743 -0.5021486 0.2510743
-0.5021486 0.1506446 -0.1506446 0.20085946 0.45193377 0.20085946 0.0 0.1506446

sequential_1/dense_7/MatMul i1 [30, 120] scale=0.046239797 zero_point=0
00000000: 0312 02f5 fced fc01 fffb 0dfc 03e6 ffe9
00000010: 02fd 050e fefc e004 fa08 02ff 0d01 00fd
00000020: ff04 0dfd 01e3 06f4 0501 f304 08f8 03fb
00000030: 0bfd fe20 0df8 f203 00ca ff03 fffd fe00
00000040: ff00 fd02 0108 f2fe 0006 f8ff 0202 bb00
00000050: 02fa 0402 0301 0e0a 03ff 04f1 0300 02d2
00000060: f501 fc03 81fc f5ee fcf5 fe02 f5ed 0cfe
00000070: fee8 01f9 0403 02fc 02dd ecfd 0308 ffff
00000080: 0001 0106 fcfc fc0a 0103 07fe fc02 0406
00000090: 00e7 fd01 0404 d1fe f1f8 05fe 0412 e7f9
000000a0: 0603 f601 f2f2 fffb 05fe 02f7 f5fc 0101
000000b0: ff0e da01 01fd 0204 fe03 fdfe ea01 0af4
000000c0: 04f9 01fd 05f5 feff 04e6 ff03 01de f400
000000d0: eff9 efff 01fd ff02 f9fd 0700 efff f1f9
000000e0: 06fe 0103 0b01 0800 fc00 fdf9 fbfd 0302
000000f0: 01c7 06ff fd09 03fd ce03 0706 02ff 04fe
0.1387194 0.83231634 0.092479594 -0.5086378 -0.18495919 -0.87855613 -0.18495919 0.046239797
-0.046239797 -0.23119898 0.6011174 -0.18495919 0.1387194 -1.2022347 -0.046239797 -1.0635153
0.092479594 -0.1387194 0.23119898 0.64735717 -0.092479594 -0.18495919 -1.4796735 0.18495919
-0.2774388 0.36991838 0.092479594 -0.046239797 0.6011174 0.046239797 0.0 -0.1387194
-0.046239797 0.18495919 0.6011174 -0.1387194 0.046239797 -1.3409541 0.2774388 -0.5548776
0.23119898 0.046239797 -0.6011174 0.18495919 0.36991838 -0.36991838 0.1387194 -0.23119898
0.5086378 -0.1387194 -0.092479594 1.4796735 0.6011174 -0.36991838 -0.64735717 0.1387194
0.0 -2.496949 -0.046239797 0.1387194 -0.046239797 -0.1387194 -0.092479594 0.0
-0.046239797 0.0 -0.1387194 0.092479594 0.046239797 0.36991838 -0.64735717 -0.092479594
0.0 0.2774388 -0.36991838 -0.046239797 0.092479594 0.092479594 -3.190546 0.0
0.092479594 -0.2774388 0.18495919 0.092479594 0.1387194 0.046239797 0.64735717 0.46239796
0.1387194 -0.046239797 0.18495919 -0.69359696 0.1387194 0.0 0.092479594 -2.1270306
-0.5086378 0.046239797 -0.18495919 0.1387194 -5.872454 -0.18495919 -0.5086378 -0.83231634
-0.18495919 -0.5086378 -0.092479594 0.092479594 -0.5086378 -0.87855613 0.5548776 -0.092479594
-0.092479594 -1.1097552 0.046239797 -0.32367858 0.18495919 0.1387194 0.092479594 -0.18495919
0.092479594 -1.618393 -0.9247959 -0.1387194 0.1387194 0.36991838 -0.046239797 -0.046239797
0.0 0.046239797 0.046239797 0.2774388 -0.18495919 -0.18495919 -0.18495919 0.46239796
0.046239797 0.1387194 0.32367858 -0.092479594 -0.18495919 0.092479594 0.18495919 0.2774388
0.0 -1.1559949 -0.1387194 0.046239797 0.18495919 0.18495919 -2.1732705 -0.092479594
-0.69359696 -0.36991838 0.23119898 -0.092479594 0.18495919 0.83231634 -1.1559949 -0.32367858
0.2774388 0.1387194 -0.46239796 0.046239797 -0.64735717 -0.64735717 -0.046239797 -0.23119898
0.23119898 -0.092479594 0.092479594 -0.41615817 -0.5086378 -0.18495919 0.046239797 0.046239797
-0.046239797 0.64735717 -1.7571123 0.046239797 0.046239797 -0.1387194 0.092479594 0.18495919
-0.092479594 0.1387194 -0.1387194 -0.092479594 -1.0172756 0.046239797 0.46239796 -0.5548776
0.18495919 -0.32367858 0.046239797 -0.1387194 0.23119898 -0.5086378 -0.092479594 -0.046239797
0.18495919 -1.2022347 -0.046239797 0.1387194 0.046239797 -1.5721531 -0.5548776 0.0
-0.78607655 -0.32367858 -0.78607655 -0.046239797 0.046239797 -0.1387194 -0.046239797 0.092479594
-0.32367858 -0.1387194 0.32367858 0.0 -0.78607655 -0.046239797 -0.69359696 -0.32367858
0.2774388 -0.092479594 0.046239797 0.1387194 0.5086378 0.046239797 0.36991838 0.0
-0.18495919 0.0 -0.1387194 -0.32367858 -0.23119898 -0.1387194 0.1387194 0.092479594
0.046239797 -2.6356685 0.2774388 -0.046239797 -0.1387194 0.41615817 0.1387194 -0.1387194
-2.3119898 0.1387194 0.32367858 0.2774388 0.092479594 -0.046239797 0.18495919 -0.092479594
