FrameworkForKotlin/app/src/main/assets/ANNModel.tflite (tflite, 23520 bytes, 7 tensors)

sequential/dense_1/MatMul;sequential/dense_1/Relu;sequential/dense_1/BiasAdd f4 [120]
0	0xbe5a9512	-0.21345928
1	0xbf1ab3ac	-0.6043041
2	0xbeaaaa84	-0.33333218
3	0xbd6159f7	-0.055017438
4	0xbde3f91c	-0.11131498
5	0x3c9ff719	0.019527005
6	0xbdced94a	-0.10100038
7	0x3f39abd9	0.72527844
8	0x3dbc2e6d	0.091885425
9	0x3e9372ad	0.28798428
10	0x3ed33fe9	0.41259697
11	0xbcd5d59d	-0.026102835
12	0xbe2db813	-0.1696475
13	0xbe8350a0	-0.2564745
14	0xbed88a9a	-0.42293245
15	0x3ecc7177	0.39930317
16	0xbc77bc41	-0.015120567
17	0xbd1e50b6	-0.03865119
18	0xbe240040	-0.1601572
19	0xbecedca5	-0.40402713
20	0xbf04a9ff	-0.51821893
21	0xbe835297	-0.2564895
22	0x3e2a79b0	0.16647983
23	0x3e269fc0	0.16271877
24	0xbe7b18d1	-0.24521185
25	0x3e2eed33	0.17082672
26	0xbd9f25c6	-0.077708766
27	0x3ec4efe5	0.38464275
28	0x3e017a1d	0.12644239
29	0xbda9fb59	-0.08299894
30	0xbecf8fbd	-0.4053935
31	0x3dada9df	0.08479666
32	0xbe74928c	-0.23884028
33	0x3c1c0696	0.009523055
34	0x3f110d07	0.56660503
35	0x3df860e3	0.12127855
36	0x3e3df1c1	0.18549253
37	0x3ed87108	0.42273736
38	0x3d81aea6	0.0633214
39	0xbc4fdcf2	-0.012686955
40	0xbd517be6	-0.05114355
41	0x3d5515e8	0.052022845
42	0xbc204bc5	-0.00978369
43	0xbe5a97c3	-0.21346955
44	0x3e964301	0.29347995
45	0xbe4b53d0	-0.1985619
46	0xbea7f611	-0.3280492
47	0x3f0fae8c	0.5612571
48	0x3e90ca28	0.28279233
49	0x3d66ce66	0.05634918
50	0x3dcb5010	0.0992738
51	0x3efbe82d	0.49200574
52	0x3e3de9b9	0.1854619
53	0x3e9ff274	0.31239665
54	0x3eb235b6	0.34806603
55	0x3dae5ba6	0.08513574
56	0x3d068074	0.032837346
57	0xbd27bde6	-0.040952586
58	0x3eb5ea6f	0.3553042
59	0xbd4bf436	-0.049793445
60	0xbe2a073e	-0.16604325
61	0xbe12cb59	-0.14335383
62	0x3eced3f8	0.40396094
63	0xbed37a6c	-0.41304338
64	0x3e432b6a	0.1905953
65	0xbe92af9c	-0.28649604
66	0x3e61414b	0.21997564
67	0xbe283c5b	-0.16429274
68	0xbe8fb580	-0.2806816
69	0xbdb75dc1	-0.08953429
70	0xbf155670	-0.5833502
71	0xbd9eff80	-0.077635765
72	0x3d0d397b	0.034478646
73	0x3e128fb9	0.14312638
74	0x3e76460d	0.2405016
75	0x3d96d747	0.0736528
76	0x3d3c6299	0.045992468
77	0x3f113df2	0.56735146
78	0xbdc92b75	-0.09822742
79	0xbe526d2f	-0.20549463
80	0x3df43cb3	0.1192564
81	0x3e1039e2	0.1408458
82	0xb9b658ce	-0.0003477991
83	0xbdf4ad2d	-0.11947093
84	0xbece76ff	-0.40325162
85	0xbedbc609	-0.42924526
86	0x3e22ddf2	0.15904978
87	0xbed6a810	-0.41925097
88	0xbd732042	-0.059356935
89	0xbeeb6b64	-0.4598037
90	0xbe3655a4	-0.17806107
91	0xbe17d11f	-0.14825867
92	0xbeb22fee	-0.34802192
93	0x3db89212	0.09012236
94	0xbe56bfe9	-0.20971645
95	0xbf22d1a5	-0.6360114
96	0xbf00e52d	-0.50349694
97	0xbe2e8f63	-0.17046885
98	0xbd4fedbc	-0.05076383
99	0xbe74f44b	-0.23921315
100	0x3cc64c85	0.02420641
101	0xbeacc936	-0.33747262
102	0x3d29e12f	0.041474517
103	0x3c27bea9	0.010238328
104	0x3f2c9a8f	0.6742334
105	0xbd653489	-0.055958305
106	0x3d406cb9	0.046978686
107	0x3e470295	0.19434579
108	0xbe99a1da	-0.30006295
109	0x3ea39463	0.31949148
110	0xbe07825c	-0.13233322
111	0x3e038623	0.12844138
112	0x3ea5ab52	0.3235727
113	0xbe0db979	-0.13840283
114	0x3ba508fe	0.0050364723
115	0x3e47f65f	0.19527577
116	0xbeb2cf47	-0.34923765
117	0x3ec8e716	0.39238805
118	0xbeba086f	-0.3633456
119	0xbdba664e	-0.09101544

sequential/dense_2/BiasAdd/ReadVariableOp f4 [120]
0	0xbd2c8f49	-0.042128835
1	0xbe2b4a91	-0.16727664
2	0xbe1735b0	-0.14766574
3	0x3e2a9c13	0.166611
4	0x3dc8ffbf	0.09814405
5	0x3b9bf613	0.004759559
6	0x3cceefb1	0.025260778
7	0xbcab0d39	-0.020880328
8	0xbcdfba3e	-0.027310487
9	0x3d53453f	0.05157971
10	0x3dd7f09e	0.10543941
11	0x3e9a8709	0.3018115
12	0x3c9a9e9f	0.018874465
13	0x3d2c64d4	0.042088345
14	0xbd2a6f90	-0.0416103
15	0x3d642f81	0.055709366
16	0xbdaba98b	-0.08381947
17	0x3c514cc9	0.012774655
18	0xbd216021	-0.039398316
19	0xbdf5a3d7	-0.119941406
20	0x3d29f63c	0.041494593
21	0x3d9068c0	0.070512295
22	0xbb47f764	-0.0030512447
23	0x3d07b2c5	0.033129472
24	0xbd2c175f	-0.042014476
25	0xbcc4cfe4	-0.024024911
26	0x3c35445e	0.011063663
27	0xbd5eda16	-0.0544072
28	0xbcf8c83f	-0.030368922
29	0x3d9f5eaa	0.077817276
30	0x3d9209d5	0.071307816
31	0x3d043ca3	0.03228439
32	0x3d68703f	0.05674767
33	0x3e344850	0.1760571
34	0x3e56e93e	0.20987412
35	0xbdc77246	-0.09738593
36	0xbe0adaab	-0.13559978
37	0xbd18dd1d	-0.037320245
38	0x3e1eb638	0.15499198
39	0xbe036760	-0.12832403
40	0xbe47e064	-0.19519192
41	0x3d27fa7c	0.041010365
42	0xbd755e3a	-0.059904315
43	0xbd6ea601	-0.058263782
44	0xbd543824	-0.051811352
45	0xbcf1ee58	-0.029532596
46	0xbd14a8bb	-0.036293726
47	0xbe1ca127	-0.1529585
48	0xbe2a6804	-0.16641241
49	0xbdabb19b	-0.08383485
50	0x3dd47268	0.10373384
51	0xbe348361	-0.17628242
52	0x3d861ab4	0.06548062
53	0xbe173edd	-0.14770074
54	0x3b971cab	0.004611572
55	0x3b7c6f6c	0.003851856
56	0xbc533469	-0.0128909135
57	0xbd4e98c1	-0.050438646
58	0x3e1fb520	0.15596437
59	0xbd24cc6f	-0.040234026
60	0xbd37c0cf	-0.04486161
61	0x3da3f329	0.080053635
62	0xbd1ab335	-0.03776856
63	0x3d86808b	0.065674864
64	0x3e89cd0a	0.26914245
65	0xbd8ad145	-0.06778196
66	0xbdb8716d	-0.09006009
67	0x3d8f7f81	0.07006741
68	0x3e1f8129	0.15576614
69	0xbd888dae	-0.06667648
70	0x3c06e632	0.008233594
71	0xbd14c9f0	-0.036325395
72	0xbe000d2b	-0.12505023
73	0x3e48dd77	0.19615732
74	0xbd9b88c2	-0.07594444
75	0xbd1057a9	-0.03523985
76	0xbcbb47de	-0.022861417
77	0xbdae6302	-0.08514978
78	0x3d788529	0.060673866
79	0xbd87eb7b	-0.06636711
80	0xbe17df7d	-0.14831348
81	0xbd537ada	-0.051630832
82	0xbd27b61d	-0.04094516
83	0xbd588b28	-0.052867085
84	0xbddf9f65	-0.10919074
85	0x3e1f3f78	0.15551555
86	0xbda91ffd	-0.082580544
87	0xbe152510	-0.1456492
88	0xbd622b14	-0.055216864
89	0xbc2c70c9	-0.010524937
90	0xbcfd8473	-0.030946946
91	0xbc354fd0	-0.011066392
92	0x3e4b5f0e	0.19860479
93	0xbcaa307a	-0.020775069
94	0x3d9e4169	0.0772732
95	0xbdbd9345	-0.09256605
96	0xbd3ef0b3	-0.046616267
97	0xbcb3de37	-0.021956546
98	0x3db75530	0.08951795
99	0x3d3d21f7	0.04617497
100	0xbe2b1312	-0.16706493
101	0x3cd17146	0.025566708
102	0x3d9d5749	0.07682664
103	0x00000000	0.0
104	0xbd8ad3b3	-0.0677866
105	0xbc8ae3c3	-0.016954308
106	0xbd1516b0	-0.03639859
107	0x3b07753b	0.002066924
108	0xbe6a676f	-0.2289102
109	0x3bfe90ff	0.0077687497
110	0xbca182d4	-0.019715704
111	0xbd9c242b	-0.07624086
112	0xbd9cde30	-0.076595664
113	0xbd54f1b5	-0.051988322
114	0xbd99e0c9	-0.075135775
115	0x3dfb781d	0.12278769
116	0x3e2e563d	0.17025085
117	0xbc705843	-0.014669481
118	0xbcfe7a9e	-0.031064328
119	0xbd2c4625	-0.042059083

sequential/dense_3/BiasAdd/ReadVariableOp f4 [17]
0	0xbe17db51	-0.14829756
1	0x3c2ccb11	0.010546462
2	0x3d67b2e3	0.056567084
3	0xbe1a56e6	-0.15072212
4	0xbd15ee28	-0.036604077
5	0x3e2d2955	0.16910298
6	0xbdb9a179	-0.090640016
7	0x3dc6f259	0.09714193
8	0xbe672815	-0.22573884
9	0xbbf1ca8d	-0.0073788823
10	0xbcdd17ae	-0.02698883
11	0xbd74792f	-0.059685882
12	0x3ca827fa	0.020526875
13	0x3d423830	0.047416866
14	0x3dd7ae2d	0.10531268
15	0x3d6e0c5b	0.05811725
16	0xbb8dd61e	-0.0043285033

sequential/dense/MatMul1 f4 [18, 18]
0	0x3e37779d	0.17916723
1	0xbd520cd4	-0.051281765
2	0x3ecd9c0c	0.40158117
3	0x3d28b763	0.041190516
4	0x3e3af88c	0.18258876
5	0xbf2f6fa1	-0.6852971
6	0xbebc1638	-0.36735702
7	0x3ec25d06	0.37961596
8	0x3d7890cd	0.060684968
9	0x3ed4cc2e	0.41562027
10	0xbeb6f8c0	-0.35736656
11	0x3f687224	0.90799165
12	0x3e55c507	0.20875941
13	0xbd3066ff	-0.043066975
14	0xbe773218	-0.24140203
15	0xbedea91b	-0.43488392
16	0xbe20f806	-0.15719613
17	0x3e91ed0c	0.28501165
18	0x3e53c22b	0.20679538
19	0x3e584f43	0.21123986
20	0x3e36495f	0.17801426
21	0x3e44cf1a	0.19219628
22	0x3d9a6067	0.075379185
23	0x3f1dc029	0.6162134
24	0x3dcda546	0.10041289
25	0xbe87356c	-0.26407945
26	0xbf46f55a	-0.77718127
27	0xbee28a84	-0.44246304
28	0xbe3dc9cb	-0.18534009
29	0xbe474539	-0.1946
30	0xbc9164f3	-0.017748332
31	0xbee2686e	-0.442203
32	0x3e838386	0.25686282
33	0xbf0b9bf9	-0.5453487
34	0x3cd1d0d0	0.025612265
35	0xbf2eea2c	-0.6832607
36	0x3e8806cf	0.26567695
37	0xbe881e7f	-0.26585767
38	0x3ea7c46a	0.3276704
39	0xbe5cdac6	-0.2156783
40	0x3ec1d68b	0.37858996
41	0x3ebf4076	0.37353867
42	0xbe552606	-0.20815286
43	0x3df83f18	0.12121409
44	0xbea9d7a5	-0.33172336
45	0x3d5f4284	0.054506794
46	0x3ecc3f71	0.39892152
47	0x3ec5b0e5	0.38611522
48	0x3ee65451	0.44986203
49	0xbeb701c4	-0.35743535
50	0xbe887216	-0.2664954
51	0x3ead2f49	0.33825138
52	0x3e923702	0.28557593
53	0x3d42bd34	0.04754372
54	0x3e1c8840	0.1528635
55	0xbeabf42d	-0.3358473
56	0xbef6e462	-0.48221117
57	0xbde73a6b	-0.11290439
58	0x3ef6241a	0.48074418
59	0xbf6da288	-0.9282613
60	0x3e372d05	0.17888267
61	0x3caa57e0	0.020793855
62	0x3dbddd1b	0.09270688
63	0x3e77ed4c	0.24211615
64	0x3e69f1a3	0.22846083
65	0x3e6e3fd9	0.23266543
66	0xbd3ae7a1	-0.045631055
67	0x3e83c490	0.25735903
68	0x3ea49fec	0.3215326
69	0x3cda03f8	0.02661322
70	0xbeb0d830	-0.34539938
71	0xbde0b7ae	-0.10972534
72	0xbd709f38	-0.058745593
73	0xbd66be95	-0.056334097
74	0xbf2056ca	-0.6263243
75	0x3e7deaeb	0.24796645
76	0x3e1a59bf	0.15073298
77	0x3c80e128	0.015732363
78	0xbdc821f0	-0.09772098
79	0x3e2c1dd0	0.16808248
80	0x3e48b182	0.19598964
81	0x3e93555a	0.28776056
82	0xbce85ae5	-0.028363654
83	0xbf6aa2b5	-0.9165452
84	0xbee924c6	-0.45535868
85	0x3e2b4448	0.16725266
86	0xbde067a6	-0.10957269
87	0x3f2a79b7	0.6659197
88	0x3e4e1184	0.20123869
89	0x3e85701a	0.2606209
90	0xbe38ece3	-0.18059115
91	0x3ea93167	0.33045503
92	0x3dbf4b0a	0.093404844
93	0x3e5519e3	0.20810656
94	0x3c73e50d	0.014886153
95	0x3dfbd7e3	0.122970365
96	0xbe533f55	-0.20629628
97	0xbe38bd66	-0.18041
98	0x3d209e27	0.039213326
99	0xbe49a367	-0.1969124
100	0xbeae5fa8	-0.34057355
101	0xbf0cc65a	-0.5499016
102	0xbeb88f48	-0.36046815
103	0x3f07bb58	0.5302024
104	0x3f04bdeb	0.5185229
105	0x3e3fe49c	0.18739551
106	0x3e5babe0	0.21452284
107	0xbf2b599d	-0.66933614
108	0xbe396fca	-0.1810905
109	0xbe23ace3	-0.1598392
110	0x3d86f56d	0.0658978
111	0x3e4e23b9	0.20130815
112	0xbed06fd0	-0.40710306
113	0xbedfa69e	-0.43681806
114	0x3f02451b	0.50886697
115	0x3e8e3550	0.2777505
116	0xbe0a30cc	-0.13495177
117	0x3e42e27d	0.19031711
118	0x3ef51485	0.47867218
119	0x3ede985b	0.43475613
120	0x3f0e46c2	0.5557672
121	0x3eebf30e	0.46083874
122	0x3e5c4b30	0.21513057
123	0x3e5f12cc	0.21784514
124	0xbd9d1b74	-0.07671252
125	0x3eef8e9c	0.4678849
126	0xbf0f727b	-0.5603406
127	0x3db99d82	0.09063245
128	0x3e584ebc	0.21123785
129	0x3eb31665	0.34978023
130	0xbe01c966	-0.12674484
131	0xbe0e7e6e	-0.13915417
132	0x3edf146d	0.4357027
133	0x3e85ee9c	0.26158607
134	0xbdc193b7	-0.094520025
135	0x3eaec8ac	0.34137475
136	0x3f00e80d	0.5035408
137	0xbf81fab6	-1.0154636
138	0x3ee094ad	0.4386343
139	0xbdff08f0	-0.124528766
140	0x3d240d72	0.040051885
141	0x3d9ff52d	0.078104354
142	0x3e7c681c	0.2464909
143	0x3e7e6f14	0.2484706
144	0xbe42f279	-0.19037808
145	0xbc79df77	-0.015251032
146	0xbea16147	-0.3151953
147	0x3d9db373	0.07700243
148	0x3d51f5c4	0.05125977
149	0x3e92d307	0.28676626
150	0xbd1cede3	-0.038312804
151	0x3e2e9d90	0.17052293
152	0x3eb25327	0.34829065
153	0xbf0fc709	-0.5616308
154	0xbf097a87	-0.53702587
155	0xbe9614fc	-0.29312885
156	0xbe42d97c	-0.19028276
157	0x3d920d47	0.07131439
158	0xbe2714ca	-0.16316524
159	0x3ecd23f2	0.40066487
160	0xbc335b40	-0.010947049
161	0xbf20a18b	-0.62746495
162	0xbdf93848	-0.12168938
163	0xbe5d9dbe	-0.21642205
164	0xbdbbb28e	-0.09164916
165	0x3edc2e7f	0.43004224
166	0x3e070fd9	0.13189639
167	0xbf32d80a	-0.698609
168	0xbeb41e59	-0.35179403
169	0xbea72ee7	-0.3265297
170	0x3dba89ac	0.0910829
171	0x3eb31f17	0.34984657
172	0x3f1191a6	0.56862867
173	0xbd0719c4	-0.032983556
174	0x3ee5f928	0.44916654
175	0xbebe735e	-0.37197393
176	0x3e5b8538	0.21437538
177	0xbe7ea19b	-0.24866335
178	0x3e99cea8	0.3004048
179	0x3db5d8fe	0.088792786
180	0x3ea8a665	0.3293945
181	0x3ececfd7	0.40392944
182	0xbe7c1b60	-0.24619818
183	0xbf07178b	-0.527703
184	0xbeba4d08	-0.36386895
185	0x3e8cd45a	0.2750576
186	0xbe48234a	-0.19544712
187	0xbe152f94	-0.14568931
188	0xbe3cdf26	-0.184445
189	0xbee1d48b	-0.4410747
190	0xbed137cc	-0.40862882
191	0x3f403fdc	0.7509744
192	0x3d6dcd13	0.058056902
193	0xbee7ca2e	-0.45271438
194	0x3e857541	0.2606602
195	0x3d821eae	0.06353508
196	0xbe8a2fdd	-0.26989642
197	0x3eeb4aea	0.45955592
198	0xbf00d970	-0.50331783
199	0x3ec98e2d	0.39366284
200	0xbe4936cc	-0.1964981
201	0x3e26f581	0.1630459
202	0x3d83bd09	0.0643254
203	0xbe5cd88d	-0.21566983
204	0x3ddbaa42	0.107258335
205	0xbdc28108	-0.09497267
206	0xbe641369	-0.2227303
207	0xbe4546ff	-0.19265364
208	0x3ea2501b	0.3170174
209	0xbf07c656	-0.5303701
210	0x3e06ef88	0.13177311
211	0xbf1437f5	-0.57897884
212	0xbea160ec	-0.31519258
213	0xbea91baa	-0.33028919
214	0x3ddf0908	0.108903944
215	0x3f3a8fcd	0.7287567
216	0xbe2425c2	-0.16030028
217	0xbe64fc47	-0.22361861
218	0x3dc1ac32	0.09456672
219	0xbe947923	-0.2899867
220	0x3e2a72cc	0.16645354
221	0x3cdbfbf3	0.026853537
222	0x3f118eef	0.56858724
223	0x3e313e74	0.1730898
224	0xbe1f4009	-0.15551771
225	0x3e7b413e	0.24536607
226	0xbb698885	-0.003563435
227	0xbe75a316	-0.23987994
228	0xbebe455d	-0.37162295
229	0xbdfe0742	-0.12403728
230	0xbe063a9d	-0.13108297
231	0x3f27ebb1	0.6559401
232	0x3e8563bc	0.26052654
233	0x3c87dc57	0.016584558
234	0x3dc8c6ef	0.098035686
235	0x3e57da17	0.21079288
236	0xbdf835c2	-0.121196285
237	0x3ee32eb5	0.44371572
238	0xbe662cf1	-0.22478081
239	0x3cf7272d	0.030170048
240	0xbf2ad690	-0.66733646
241	0x3dfdb140	0.123873234
242	0xbebbf401	-0.36709598
243	0xbdfde185	-0.1239653
244	0x3e978c7f	0.29599378
245	0x3ea09136	0.31360787
246	0xbebcb7c1	-0.36858943
247	0x3ed2d51d	0.41178218
248	0x3eebcd12	0.46054894
249	0xbf07b271	-0.53006655
250	0xbd817518	-0.06321162
251	0xbd48e06d	-0.049042154
252	0xbe8e271f	-0.27764222
253	0x3e491fdc	0.1964106
254	0x3ed445c5	0.4145948
255	0xbf014837	-0.50500816

sequential/dense_1/MatMul i1 [120, 18] scale=0.0103168255 zero_point=0
0	0xf1	-0.15475239
1	0xf6	-0.10316826
2	0x01	0.0103168255
3	0x0c	0.1238019
4	0xf0	-0.16506921
5	0x01	0.0103168255
6	0xe4	-0.2888711
7	0xf5	-0.11348508
8	0xfd	-0.030950475
9	0xf3	-0.13411874
10	0x0c	0.1238019
11	0xef	-0.17538603
12	0x0b	0.11348508
13	0xe3	-0.29918793
14	0x1c	0.2888711
15	0x00	0.0
16	0x19	0.25792062
17	0xf5	-0.11348508
18	0xd6	-0.43330666
19	0x15	0.21665333
20	0x0b	0.11348508
21	0xed	-0.19601968
22	0xfb	-0.05158413
23	0x12	0.18570286
24	0x0d	0.13411874
25	0x16	0.22697017
26	0x17	0.23728698
27	0xf4	-0.1238019
28	0xf1	-0.15475239
29	0x09	0.09285143
30	0x12	0.18570286
31	0xfe	-0.020633651
32	0x19	0.25792062
33	0x14	0.20633651
34	0xf4	-0.1238019
35	0x1c	0.2888711
36	0xeb	-0.21665333
37	0x25	0.38172254
38	0xea	-0.22697017
39	0xe2	-0.30950478
40	0xec	-0.20633651
41	0x0c	0.1238019
42	0xef	-0.17538603
43	0x0f	0.15475239
44	0x0c	0.1238019
45	0x03	0.030950475
46	0x17	0.23728698
47	0x1d	0.29918793
48	0xfd	-0.030950475
49	0xf0	-0.16506921
50	0xfc	-0.041267302
51	0x07	0.07221778
52	0x00	0.0
53	0xed	-0.19601968
54	0x02	0.020633651
55	0x08	0.082534604
56	0x09	0.09285143
57	0xcf	-0.50552446
58	0xc4	-0.61900955
59	0xf6	-0.10316826
60	0xea	-0.22697017
61	0x14	0.20633651
62	0xfe	-0.020633651
63	0x1b	0.2785543
64	0x12	0.18570286
65	0x1d	0.29918793
66	0xe0	-0.33013842
67	0x00	0.0
68	0xe8	-0.2476038
69	0x28	0.41267303
70	0xf9	-0.07221778
71	0xe0	-0.33013842
72	0xf3	-0.13411874
73	0xf6	-0.10316826
74	0xf7	-0.09285143
75	0x05	0.05158413
76	0x03	0.030950475
77	0xf0	-0.16506921
78	0x0c	0.1238019
79	0x0e	0.14443555
80	0x1a	0.26823747
81	0x13	0.19601968
82	0x05	0.05158413
83	0xf8	-0.082534604
84	0xfc	-0.041267302
85	0xf6	-0.10316826
86	0x0f	0.15475239
87	0x0c	0.1238019
88	0x16	0.22697017
89	0x07	0.07221778
90	0x10	0.16506921
91	0xf4	-0.1238019
92	0xc8	-0.5777422
93	0xe8	-0.2476038
94	0xe5	-0.2785543
95	0xf6	-0.10316826
96	0x15	0.21665333
97	0xe3	-0.29918793
98	0x16	0.22697017
99	0xf4	-0.1238019
100	0x15	0.21665333
101	0xf9	-0.07221778
102	0xf0	-0.16506921
103	0x0f	0.15475239
104	0x1d	0.29918793
105	0xf8	-0.082534604
106	0x15	0.21665333
107	0xf1	-0.15475239
108	0xde	-0.35077205
109	0xf0	-0.16506921
110	0x09	0.09285143
111	0x01	0.0103168255
112	0x23	0.3610889
113	0x0b	0.11348508
114	0x18	0.2476038
115	0x06	0.06190095
116	0x01	0.0103168255
117	0xf7	-0.09285143
118	0x0e	0.14443555
119	0x08	0.082534604
120	0x25	0.38172254
121	0xea	-0.22697017
122	0x02	0.020633651
123	0xf5	-0.11348508
124	0xed	-0.19601968
125	0x02	0.020633651
126	0xf7	-0.09285143
127	0x05	0.05158413
128	0xfc	-0.041267302
129	0x0f	0.15475239
130	0xea	-0.22697017
131	0x0a	0.10316826
132	0xff	-0.0103168255
133	0xf4	-0.1238019
134	0xe8	-0.2476038
135	0x0b	0.11348508
136	0x0c	0.1238019
137	0xdd	-0.3610889
138	0xe5	-0.2785543
139	0x1f	0.3198216
140	0xf4	-0.1238019
141	0xf0	-0.16506921
142	0xd1	-0.4848908
143	0xe9	-0.23728698
144	0x14	0.20633651
145	0xe5	-0.2785543
146	0x10	0.16506921
147	0x0b	0.11348508
148	0x0f	0.15475239
149	0xf7	-0.09285143
150	0x04	0.041267302
151	0xf1	-0.15475239
152	0xfd	-0.030950475
153	0x0b	0.11348508
154	0xe7	-0.25792062
155	0xf6	-0.10316826
156	0x2b	0.44362348
157	0xeb	-0.21665333
158	0xe7	-0.25792062
159	0xf3	-0.13411874
160	0xfe	-0.020633651
161	0xf0	-0.16506921
162	0x21	0.34045523
163	0xf0	-0.16506921
164	0xef	-0.17538603
165	0x18	0.2476038
166	0xed	-0.19601968
167	0x03	0.030950475
168	0xf9	-0.07221778
169	0x03	0.030950475
170	0xf0	-0.16506921
171	0xf8	-0.082534604
172	0x05	0.05158413
173	0xf2	-0.14443555
174	0xe2	-0.30950478
175	0x08	0.082534604
176	0x0c	0.1238019
177	0xe8	-0.2476038
178	0x0b	0.11348508
179	0xec	-0.20633651
180	0x3d	0.62932634
181	0xf8	-0.082534604
182	0x00	0.0
183	0x06	0.06190095
184	0xe3	-0.29918793
185	0x17	0.23728698
186	0x0b	0.11348508
187	0xf2	-0.14443555
188	0xf9	-0.07221778
189	0xe4	-0.2888711
190	0xef	-0.17538603
191	0xc1	-0.64996
192	0x14	0.20633651
193	0x08	0.082534604
194	0xe8	-0.2476038
195	0x1f	0.3198216
196	0xef	-0.17538603
197	0x0c	0.1238019
198	0xfe	-0.020633651
199	0xf5	-0.11348508
200	0xf8	-0.082534604
201	0xfa	-0.06190095
202	0xfa	-0.06190095
203	0xef	-0.17538603
204	0xfc	-0.041267302
205	0xec	-0.20633651
206	0x12	0.18570286
207	0x0d	0.13411874
208	0xeb	-0.21665333
209	0xf7	-0.09285143
210	0x06	0.06190095
211	0x06	0.06190095
212	0x0f	0.15475239
213	0x08	0.082534604
214	0x12	0.18570286
215	0xfd	-0.030950475
216	0xcc	-0.53647494
217	0xe5	-0.2785543
218	0xfb	-0.05158413
219	0xf0	-0.16506921
220	0x22	0.35077205
221	0xf1	-0.15475239
222	0x1f	0.3198216
223	0x12	0.18570286
224	0xee	-0.18570286
225	0xfb	-0.05158413
226	0x0b	0.11348508
227	0xf7	-0.09285143
228	0x1b	0.2785543
229	0xe5	-0.2785543
230	0xfc	-0.041267302
231	0xe7	-0.25792062
232	0xfa	-0.06190095
233	0xe4	-0.2888711
234	0xd9	-0.4023562
235	0x0e	0.14443555
236	0xeb	-0.21665333
237	0x0d	0.13411874
238	0xff	-0.0103168255
239	0x0b	0.11348508
240	0xfd	-0.030950475
241	0x12	0.18570286
242	0x04	0.041267302
243	0x16	0.22697017
244	0x06	0.06190095
245	0xff	-0.0103168255
246	0x18	0.2476038
247	0x07	0.07221778
248	0x1c	0.2888711
249	0xf0	-0.16506921
250	0x04	0.041267302
251	0xe0	-0.33013842
252	0xc2	-0.6396432
253	0x0a	0.10316826
254	0xfd	-0.030950475
255	0xfc	-0.041267302

sequential/dense_2/MatMul i1 [120, 120] scale=0.012667586 zero_point=0
0	0xf3	-0.16467862
1	0xf7	-0.11400828
2	0x02	0.025335172
3	0xfb	-0.06333793
4	0x09	0.11400828
5	0x02	0.025335172
6	0x05	0.06333793
7	0xf5	-0.13934344
8	0xf1	-0.1900138
9	0xfb	-0.06333793
10	0xf0	-0.20268138
11	0x0b	0.13934344
12	0xf8	-0.10134069
13	0xfe	-0.025335172
14	0x02	0.025335172
15	0xf9	-0.0886731
16	0xf4	-0.15201104
17	0xfb	-0.06333793
18	0xfc	-0.050670344
19	0xfc	-0.050670344
20	0x00	0.0
21	0xf9	-0.0886731
22	0xfa	-0.07600552
23	0x08	0.10134069
24	0xf8	-0.10134069
25	0xff	-0.012667586
26	0x06	0.07600552
27	0xff	-0.012667586
28	0xf8	-0.10134069
29	0x04	0.050670344
30	0x06	0.07600552
31	0xfd	-0.03800276
32	0x08	0.10134069
33	0x0a	0.12667586
34	0xf6	-0.12667586
35	0x01	0.012667586
36	0x04	0.050670344
37	0xfa	-0.07600552
38	0x07	0.0886731
39	0x01	0.012667586
40	0xff	-0.012667586
41	0x01	0.012667586
42	0xfe	-0.025335172
43	0xf8	-0.10134069
44	0x04	0.050670344
45	0x07	0.0886731
46	0xf7	-0.11400828
47	0x02	0.025335172
48	0xf9	-0.0886731
49	0x06	0.07600552
50	0xf4	-0.15201104
51	0xfe	-0.025335172
52	0x08	0.10134069
53	0x04	0.050670344
54	0xf9	-0.0886731
55	0x06	0.07600552
56	0x0c	0.15201104
57	0xff	-0.012667586
58	0xf6	-0.12667586
59	0x06	0.07600552
60	0xf0	-0.20268138
61	0xf8	-0.10134069
62	0x02	0.025335172
63	0xf9	-0.0886731
64	0xfe	-0.025335172
65	0xf5	-0.13934344
66	0xf6	-0.12667586
67	0x09	0.11400828
68	0x09	0.11400828
69	0x05	0.06333793
70	0xf3	-0.16467862
71	0xf8	-0.10134069
72	0xf7	-0.11400828
73	0x0c	0.15201104
74	0xf8	-0.10134069
75	0x0a	0.12667586
76	0xfc	-0.050670344
77	0x04	0.050670344
78	0x00	0.0
79	0xf4	-0.15201104
80	0x0a	0.12667586
81	0xf8	-0.10134069
82	0x0a	0.12667586
83	0xfb	-0.06333793
84	0x07	0.0886731
85	0x05	0.06333793
86	0xf4	-0.15201104
87	0xf7	-0.11400828
88	0x05	0.06333793
89	0xfc	-0.050670344
90	0x05	0.06333793
91	0xfe	-0.025335172
92	0xf7	-0.11400828
93	0xf6	-0.12667586
94	0xff	-0.012667586
95	0xfe	-0.025335172
96	0x09	0.11400828
97	0x04	0.050670344
98	0x05	0.06333793
99	0x04	0.050670344
100	0xfc	-0.050670344
101	0xfa	-0.07600552
102	0x08	0.10134069
103	0xf9	-0.0886731
104	0xf9	-0.0886731
105	0x01	0.012667586
106	0x01	0.012667586
107	0xfc	-0.050670344
108	0xf5	-0.13934344
109	0xfa	-0.07600552
110	0x09	0.11400828
111	0xf6	-0.12667586
112	0xea	-0.27868688
113	0x04	0.050670344
114	0x05	0.06333793
115	0xff	-0.012667586
116	0xfc	-0.050670344
117	0xfd	-0.03800276
118	0x00	0.0
119	0xfb	-0.06333793
120	0x0b	0.13934344
121	0xfd	-0.03800276
122	0xfc	-0.050670344
123	0xef	-0.21534896
124	0xfc	-0.050670344
125	0x2d	0.57004136
126	0xf2	-0.1773462
127	0xf5	-0.13934344
128	0x02	0.025335172
129	0x02	0.025335172
130	0xe3	-0.36736
131	0xf1	-0.1900138
132	0xfb	-0.06333793
133	0x10	0.20268138
134	0x0e	0.1773462
135	0xfb	-0.06333793
136	0xee	-0.22801656
137	0xed	-0.24068414
138	0xfc	-0.050670344
139	0xfe	-0.025335172
140	0x0e	0.1773462
141	0x01	0.012667586
142	0xf5	-0.13934344
143	0xf7	-0.11400828
144	0x09	0.11400828
145	0x1e	0.3800276
146	0xf1	-0.1900138
147	0x0e	0.1773462
148	0xf7	-0.11400828
149	0x04	0.050670344
150	0x04	0.050670344
151	0xf5	-0.13934344
152	0xf7	-0.11400828
153	0xee	-0.22801656
154	0xfc	-0.050670344
155	0x01	0.012667586
156	0x09	0.11400828
157	0xf7	-0.11400828
158	0xec	-0.25335172
159	0x0a	0.12667586
160	0x06	0.07600552
161	0x02	0.025335172
162	0x05	0.06333793
163	0xee	-0.22801656
164	0xf6	-0.12667586
165	0x09	0.11400828
166	0x00	0.0
167	0xf8	-0.10134069
168	0xf5	-0.13934344
169	0x05	0.06333793
170	0x01	0.012667586
171	0x10	0.20268138
172	0xeb	-0.2660193
173	0xfb	-0.06333793
174	0x1a	0.32935724
175	0x05	0.06333793
176	0x09	0.11400828
177	0x06	0.07600552
178	0x07	0.0886731
179	0xf0	-0.20268138
180	0xfc	-0.050670344
181	0x14	0.25335172
182	0x06	0.07600552
183	0x02	0.025335172
184	0x06	0.07600552
185	0x0e	0.1773462
186	0xfa	-0.07600552
187	0xf8	-0.10134069
188	0x1a	0.32935724
189	0x0f	0.1900138
190	0x0c	0.15201104
191	0x04	0.050670344
192	0x0f	0.1900138
193	0xfb	-0.06333793
194	0xff	-0.012667586
195	0xfb	-0.06333793
196	0xfa	-0.07600552
197	0xf7	-0.11400828
198	0x05	0.06333793
199	0x0a	0.12667586
200	0x05	0.06333793
201	0x04	0.050670344
202	0x02	0.025335172
203	0x13	0.24068414
204	0x0f	0.1900138
205	0xfd	-0.03800276
206	0xef	-0.21534896
207	0x0e	0.1773462
208	0xfc	-0.050670344
209	0x03	0.03800276
210	0x19	0.31668964
211	0xf9	-0.0886731
212	0x08	0.10134069
213	0xf7	-0.11400828
214	0x0c	0.15201104
215	0xfa	-0.07600552
216	0xfa	-0.07600552
217	0x24	0.4560331
218	0x08	0.10134069
219	0x16	0.27868688
220	0xf5	-0.13934344
221	0x0f	0.1900138
222	0xef	-0.21534896
223	0xfb	-0.06333793
224	0x0d	0.16467862
225	0x47	0.8993986
226	0x03	0.03800276
227	0x0c	0.15201104
228	0x08	0.10134069
229	0x14	0.25335172
230	0xef	-0.21534896
231	0x0a	0.12667586
232	0x06	0.07600552
233	0x0a	0.12667586
234	0xfa	-0.07600552
235	0xf2	-0.1773462
236	0xfb	-0.06333793
237	0x07	0.0886731
238	0xf8	-0.10134069
239	0x05	0.06333793
240	0xd2	-0.58270895
241	0x08	0.10134069
242	0xe2	-0.3800276
243	0xf9	-0.0886731
244	0xf2	-0.1773462
245	0xf6	-0.12667586
246	0xf7	-0.11400828
247	0xfb	-0.06333793
248	0x0d	0.16467862
249	0xfc	-0.050670344
250	0x03	0.03800276
251	0x07	0.0886731
252	0x08	0.10134069
253	0xfc	-0.050670344
254	0xf3	-0.16467862
255	0x0a	0.12667586

sequential/dense_3/MatMul i1 [17, 120] scale=0.018974286 zero_point=0
0	0xf9	-0.13282
1	0x00	0.0
2	0xf8	-0.15179428
3	0xea	-0.41743428
4	0xf0	-0.30358857
5	0x12	0.34153715
6	0x14	0.37948573
7	0xe3	-0.5502543
8	0x06	0.11384571
9	0xe2	-0.5692286
10	0x03	0.056922857
11	0xed	-0.36051142
12	0xf5	-0.20871714
13	0x0d	0.24666572
14	0x0f	0.2846143
15	0x06	0.11384571
16	0xe9	-0.43640858
17	0xd1	-0.8917914
18	0xf5	-0.20871714
19	0x07	0.13282
20	0x13	0.36051142
21	0x06	0.11384571
22	0xee	-0.34153715
23	0xf9	-0.13282
24	0x06	0.11384571
25	0xfb	-0.09487143
26	0x03	0.056922857
27	0x09	0.17076857
28	0x02	0.03794857
29	0x03	0.056922857
30	0x03	0.056922857
31	0x01	0.018974286
32	0xcd	-0.96768856
33	0xf5	-0.20871714
34	0xf4	-0.22769143
35	0xee	-0.34153715
36	0xe9	-0.43640858
37	0x09	0.17076857
38	0xd1	-0.8917914
39	0x01	0.018974286
40	0x0c	0.22769143
41	0xd2	-0.87281716
42	0xf6	-0.18974286
43	0x07	0.13282
44	0xd6	-0.79692
45	0xfe	-0.03794857
46	0x03	0.056922857
47	0xd7	-0.7779457
48	0xf4	-0.22769143
49	0x06	0.11384571
50	0xf9	-0.13282
51	0x14	0.37948573
52	0x05	0.09487143
53	0xea	-0.41743428
54	0xf6	-0.18974286
55	0x02	0.03794857
56	0xde	-0.6451257
57	0x1a	0.49333143
58	0x02	0.03794857
59	0xfb	-0.09487143
60	0x13	0.36051142
61	0x04	0.07589714
62	0xf6	-0.18974286
63	0xd3	-0.85384285
64	0xe0	-0.60717714
65	0xe5	-0.51230574
66	0x10	0.30358857
67	0xff	-0.018974286
68	0xd1	-0.8917914
69	0xcf	-0.92974
70	0xec	-0.37948573
71	0xff	-0.018974286
72	0x0b	0.20871714
73	0x06	0.11384571
74	0x02	0.03794857
75	0x08	0.15179428
76	0xf6	-0.18974286
77	0x09	0.17076857
78	0x0b	0.20871714
79	0xfd	-0.056922857
80	0xfc	-0.07589714
81	0xf8	-0.15179428
82	0xf6	-0.18974286
83	0x07	0.13282
84	0xf5	-0.20871714
85	0x04	0.07589714
86	0xf7	-0.17076857
87	0x01	0.018974286
88	0x07	0.13282
89	0x03	0.056922857
90	0x00	0.0
91	0xf9	-0.13282
92	0x03	0.056922857
93	0xff	-0.018974286
94	0x06	0.11384571
95	0x10	0.30358857
96	0x05	0.09487143
97	0x0f	0.2846143
98	0x11	0.32256284
99	0xe9	-0.43640858
100	0xe9	-0.43640858
101	0xf9	-0.13282
102	0xfe	-0.03794857
103	0x02	0.03794857
104	0xe2	-0.5692286
105	0xf8	-0.15179428
106	0xfa	-0.11384571
107	0xf1	-0.2846143
108	0x0f	0.2846143
109	0x06	0.11384571
110	0x02	0.03794857
111	0x0b	0.20871714
112	0x13	0.36051142
113	0x07	0.13282
114	0xf1	-0.2846143
115	0xe1	-0.58820283
116	0xf0	-0.30358857
117	0xff	-0.018974286
118	0xf7	-0.17076857
119	0x05	0.09487143
120	0xfb	-0.09487143
121	0x03	0.056922857
122	0x0b	0.20871714
123	0x02	0.03794857
124	0x0c	0.22769143
125	0xfd	-0.056922857
126	0xdf	-0.62615144
127	0xfb	-0.09487143
128	0x04	0.07589714
129	0x00	0.0
130	0x12	0.34153715
131	0x0a	0.18974286
132	0xf9	-0.13282
133	0x0d	0.24666572
134	0xfa	-0.11384571
135	0xd1	-0.8917914
136	0x0b	0.20871714
137	0xec	-0.37948573
138	0xee	-0.34153715
139	0xf3	-0.24666572
140	0xc7	-1.0815343
141	0x00	0.0
142	0xfa	-0.11384571
143	0x0d	0.24666572
144	0x09	0.17076857
145	0xff	-0.018974286
146	0x09	0.17076857
147	0xf3	-0.24666572
148	0xfc	-0.07589714
149	0xfc	-0.07589714
150	0x07	0.13282
151	0x01	0.018974286
152	0x10	0.30358857
153	0x09	0.17076857
154	0xfe	-0.03794857
155	0xf4	-0.22769143
156	0xf3	-0.24666572
157	0xec	-0.37948573
158	0x0b	0.20871714
159	0xf8	-0.15179428
160	0xfd	-0.056922857
161	0x01	0.018974286
162	0xdf	-0.62615144
163	0x06	0.11384571
164	0x11	0.32256284
165	0x07	0.13282
166	0xff	-0.018974286
167	0xfc	-0.07589714
168	0xed	-0.36051142
169	0xf9	-0.13282
170	0xe0	-0.60717714
171	0xea	-0.41743428
172	0xfc	-0.07589714
173	0x03	0.056922857
174	0x0b	0.20871714
175	0xf9	-0.13282
176	0x07	0.13282
177	0xd0	-0.9107657
178	0xf8	-0.15179428
179	0x01	0.018974286
180	0x00	0.0
181	0x02	0.03794857
182	0x01	0.018974286
183	0xf5	-0.20871714
184	0x03	0.056922857
185	0x0a	0.18974286
186	0x0a	0.18974286
187	0x0c	0.22769143
188	0x0a	0.18974286
189	0x18	0.45538285
190	0xf4	-0.22769143
191	0xf7	-0.17076857
192	0xf6	-0.18974286
193	0x04	0.07589714
194	0xee	-0.34153715
195	0xfd	-0.056922857
196	0x06	0.11384571
197	0x1f	0.58820283
198	0x09	0.17076857
199	0xf3	-0.24666572
200	0xfb	-0.09487143
201	0x00	0.0
202	0xf9	-0.13282
203	0xfc	-0.07589714
204	0x08	0.15179428
205	0x0e	0.26564
206	0xe8	-0.45538285
207	0xfe	-0.03794857
208	0xff	-0.018974286
209	0xf2	-0.26564
210	0xfa	-0.11384571
211	0x04	0.07589714
212	0x09	0.17076857
213	0xe4	-0.53128
214	0xf7	-0.17076857
215	0xf3	-0.24666572
216	0x0c	0.22769143
217	0xea	-0.41743428
218	0x05	0.09487143
219	0xf0	-0.30358857
220	0x07	0.13282
221	0xf1	-0.2846143
222	0xff	-0.018974286
223	0xf8	-0.15179428
224	0xf6	-0.18974286
225	0x03	0.056922857
226	0x09	0.17076857
227	0x06	0.11384571
228	0x07	0.13282
229	0xf1	-0.2846143
230	0x08	0.15179428
231	0x0d	0.24666572
232	0xf5	-0.20871714
233	0x03	0.056922857
234	0xfa	-0.11384571
235	0x02	0.03794857
236	0xf4	-0.22769143
237	0xfa	-0.11384571
238	0xfa	-0.11384571
239	0x01	0.018974286
240	0x08	0.15179428
241	0xfb	-0.09487143
242	0xe9	-0.43640858
243	0xf4	-0.22769143
244	0xf3	-0.24666572
245	0x0a	0.18974286
246	0x06	0.11384571
247	0x10	0.30358857
248	0x09	0.17076857
249	0x0a	0.18974286
250	0xf4	-0.22769143
251	0x0c	0.22769143
252	0xfd	-0.056922857
253	0x08	0.15179428
254	0xe0	-0.60717714
255	0xe8	-0.45538285
