Samples/POC2/FrameworkForKotlin/app/src/main/assets/modelForLocalTest.tflite (tflite, 8064 bytes, 5 tensors)

dense_2/bias f4 [17]
0	0xbce6a8e9	-0.028156715
1	0x3ce3b6f3	0.027797198
2	0x3d928a6c	0.07155308
3	0xbe0f1acb	-0.13975064
4	0x3d126633	0.035741996
5	0x3d59306f	0.053024705
6	0xbcccd0c6	-0.025001895
7	0x3bd5b729	0.0065220785
8	0xbe0cf183	-0.13764004
9	0x3d0a1134	0.033707812
10	0xbd433be8	-0.047664553
11	0xbd3afe80	-0.045652866
12	0xb9bcbe62	-0.00036
13	0x3d982488	0.07428843
14	0x3da3b5f7	0.079936914
15	0x3dc2f723	0.09519794
16	0xbc341052	-0.010990219

sequential/dense/MatMul f4 [18, 18]
0	0xbdf1e3fe	-0.11811064
1	0x3e33ef50	0.17571759
2	0x3d86ded4	0.0658547
3	0x3ef72b15	0.48275056
4	0xbe1a143b	-0.1504678
5	0xbe1ec16b	-0.1550347
6	0x3ee3a617	0.44462654
7	0x3ea26c34	0.31723177
8	0x3e7b192f	0.24521326
9	0x3f17fd1b	0.59370583
10	0x3e272825	0.16323908
11	0x3f22385d	0.63367254
12	0x3d69c0b8	0.057068557
13	0xbe90f350	-0.28310633
14	0x3d1ab940	0.037774324
15	0xbde6be41	-0.11266757
16	0xbe99bf45	-0.3002874
17	0x3e2bc22c	0.1677329
18	0x3e6bdf7f	0.23034476
19	0xbe2b8815	-0.1675113
20	0x3f0920eb	0.53565854
21	0x3df2e62e	0.118603095
22	0xbe4cffa3	-0.20019393
23	0xbcc426a2	-0.023944203
24	0xbf0c1e07	-0.5473332
25	0x3e32c49b	0.17457812
26	0x3eb4c1a2	0.3530398
27	0x3e9a960b	0.301926
28	0xbed711b6	-0.420057
29	0x3fbafa4a	1.4607632
30	0x3e4a867a	0.19777861
31	0x3e53d5c5	0.20687015
32	0x3e8f3995	0.2797362
33	0x3e746c19	0.23869361
34	0xbeaf43c1	-0.3423138
35	0xbdaef421	-0.08542658
36	0x3e1ed7ce	0.1551201
37	0x3e0a7747	0.13522063
38	0x3e3db0a6	0.18524417
39	0x3e3fd5a7	0.18733846
40	0x3e125abb	0.14292423
41	0x3f01837e	0.50591266
42	0xbf1cbf07	-0.61228985
43	0x3e15d151	0.14630629
44	0x3edcdf55	0.4313914
45	0x3e2360b8	0.15954864
46	0xbebc8736	-0.36821908
47	0xbdde14fe	-0.10843848
48	0x3c202acc	0.009775829
49	0xbe22b4dd	-0.15889306
50	0xbf040a4c	-0.5157821
51	0xbec8f3ec	-0.39248598
52	0x3ec4b35e	0.38418096
53	0x3f13ceea	0.577376
54	0x3ea92dea	0.33042842
55	0xbec85416	-0.39126652
56	0x3e293f22	0.1652799
57	0xbf19f8d1	-0.6014529
58	0x3e0f6f8f	0.140074
59	0xbf0b6d94	-0.5446408
60	0xbed646c8	-0.41850877
61	0x3e8b9ba7	0.2726719
62	0x3ec90881	0.392643
63	0x3e0a0293	0.13477544
64	0x3e0a9c14	0.13536102
65	0xbe611e60	-0.21984243
66	0x3ec2e919	0.38068464
67	0xbedfbe32	-0.43699795
68	0xbed85ec9	-0.42259815
69	0x3e01cfa6	0.12676868
70	0x3ed154c1	0.40884975
71	0xbda51e8d	-0.08062468
72	0x3dda1dbe	0.10650204
73	0x3e39a784	0.18130308
74	0xbeb202e8	-0.34767842
75	0x3f14f39e	0.5818423
76	0xbd909b59	-0.0706088
77	0xbe605ccb	-0.21910398
78	0xbf4e2ed9	-0.80540234
79	0xbe9f25cc	-0.31083524
80	0x3e74953f	0.23885058
81	0x3eace019	0.33764723
82	0x3e826ced	0.2547373
83	0x3ec7a887	0.38995764
84	0x3f10492b	0.56361645
85	0xbafabf81	-0.0019130559
86	0x3ebd0e26	0.36924857
87	0xbf4fb30a	-0.81132567
88	0xbf01afa8	-0.50658655
89	0x3e31f08f	0.17376922
90	0xbce2b375	-0.027673462
91	0xbec7db13	-0.39034328
92	0x3e6fe9bb	0.23429005
93	0xbe5d0b31	-0.215863
94	0xbe4c6a34	-0.19962388
95	0xbeaa46cf	-0.33257148
96	0x3e83cfaf	0.25744388
97	0xbe159ab3	-0.14609794
98	0x3ef6a32d	0.48171368
99	0x3f246490	0.64215946
100	0x3edaaf8d	0.4271206
101	0x3cdae940	0.02672255
102	0xbdec812e	-0.115480766
103	0x3eeda793	0.4641691
104	0xbdabafa3	-0.083831094
105	0x3e557a54	0.20847446
106	0x3f152aee	0.5826863
107	0x3eaeed8d	0.34165612
108	0xbc68b645	-0.014203613
109	0x3edb92cd	0.42885438
110	0x3de86644	0.113476306
111	0xbe2466cf	-0.16054843
112	0xbf1e12c4	-0.61747384
113	0x3f20ab9b	0.6276185
114	0xbe47a4b3	-0.19496422
115	0x3e3bd0be	0.18341348
116	0x3f2af1a8	0.6677499
117	0xbee3e14c	-0.44507825
118	0x3ea45ef6	0.321037
119	0xbf660d49	-0.8986402
120	0xbe68cff5	-0.2273558
121	0x3e58e227	0.2118002
122	0xbdeb3e9a	-0.1148655
123	0xbeb093f2	-0.34487873
124	0xbef3fc8f	-0.47653624
125	0xbe919eeb	-0.28441557
126	0x3d59810a	0.053101577
127	0x3da51cba	0.0806212
128	0x3eae4046	0.34033412
129	0x3ea47671	0.32121614
130	0x3d7147a5	0.058906216
131	0x3effb263	0.49940786
132	0xbf32313f	-0.69606394
133	0xbf1fcbd8	-0.62420416
134	0xbf1c7a00	-0.6112366
135	0x3e091714	0.1338771
136	0xbe3ba19a	-0.18323365
137	0x3f9f904f	1.2465914
138	0x3e81eb0f	0.25374648
139	0x3f0a9de2	0.5414716
140	0x3ebb4eb3	0.3658348
141	0xbe732e5c	-0.23748153
142	0xbe860073	-0.26172218
143	0x3e6baa26	0.23014125
144	0x3ee68c1b	0.45028767
145	0x3ebb8cd1	0.36630872
146	0xbf144c70	-0.57929134
147	0x3e88f4c9	0.26749256
148	0xbe8812c7	-0.26576826
149	0xbf32e602	-0.69882214
150	0x3e670c5f	0.22563313
151	0xbebbd9df	-0.3668966
152	0x3e294c71	0.16533066
153	0xbe91134f	-0.28335044
154	0xbe76e734	-0.24111634
155	0xbe84016a	-0.2578233
156	0x3ea224c6	0.3166868
157	0x3d9b92f6	0.0759639
158	0x3eb661b3	0.35621414
159	0xbe64bc96	-0.22337565
160	0xbe0e9ccf	-0.13927005
161	0xbe7f89d7	-0.24954925
162	0x3df39591	0.11893762
163	0xbe5ce425	-0.21571405
164	0xbf0b6128	-0.54445124
165	0x3f12a7b8	0.5728717
166	0xbea83913	-0.32856044
167	0xbf2c22e4	-0.6724074
168	0xbe7a9aae	-0.24473068
169	0xbe2d5e87	-0.1693059
170	0xbee138db	-0.4398869
171	0xbd887ec9	-0.06664807
172	0x3e056530	0.13026881
173	0xbf1b13a9	-0.60576874
174	0x3e9dd16e	0.30823845
175	0x3f10821e	0.56448543
176	0xbe8e7889	-0.27826336
177	0x3f13ecec	0.5778339
178	0x3f22a75c	0.6353662
179	0x3ec296a8	0.38005567
180	0xbe000b77	-0.12504373
181	0xbe11d00b	-0.14239518
182	0x3eddd2b7	0.43324825
183	0xbe936754	-0.2878977
184	0x3e92e2d3	0.28688678
185	0xbe3114b0	-0.17293048
186	0x3dc36374	0.095404536
187	0xbf1044dd	-0.5635508
188	0xbf19b763	-0.6004545
189	0x3f240c24	0.64081025
190	0x3f031aaa	0.5121256
191	0x3e2f34f1	0.1711004
192	0x3ed940f7	0.42432377
193	0xbda2a840	-0.079422474
194	0x3dbb4d16	0.09145562
195	0xbeeaaca2	-0.45834833
196	0x3f13fa89	0.5780416
197	0x3ef41098	0.4766891
198	0xbe4aa0bc	-0.19787878
199	0xbec088af	-0.3760428
200	0xbbe76390	-0.0070614293
201	0xbeba3fb1	-0.36376718
202	0xbe3e44bb	-0.18580906
203	0x3c390dfc	0.011294838
204	0x3d22ea71	0.039774362
205	0xbe87aa0d	-0.26496926
206	0xbe09355f	-0.13399266
207	0xbe87c2a3	-0.26515684
208	0x3e611964	0.21982342
209	0xbe18bb7f	-0.14915274
210	0x3c2a1089	0.010379919
211	0x3e9fadcf	0.31187293
212	0x3f0fc26c	0.5615604
213	0x3e945d52	0.28977448
214	0x3e540bb8	0.20707595
215	0xbcd90156	-0.026489895
216	0xbecc88cf	-0.39948127
217	0x3e9c59b0	0.30537176
218	0xbf000656	-0.5000967
219	0x3f19ba30	0.60049725
220	0x3dd016d2	0.10160603
221	0xbeb25362	-0.3482924
222	0xbede110a	-0.43372375
223	0xbec91ae5	-0.3927833
224	0x3c40a8df	0.011759012
225	0xbe9e8c9a	-0.30966645
226	0x3dc66fc8	0.09689289
227	0x3da550bc	0.080720395
228	0x3ead8aa0	0.33894825
229	0xbebbfee8	-0.36717916
230	0xbea5169d	-0.32243815
231	0x3c3ca585	0.011514072
232	0x3ebcd3f5	0.3688046
233	0x3f37d4ed	0.71809274
234	0x3e594257	0.21216713
235	0xbea0c300	-0.31398773
236	0x3c4169e2	0.01180503
237	0x3e200b72	0.15629366
238	0xbe4bbdd9	-0.1989664
239	0xbe7194a3	-0.23591857
240	0xbe8fe7a2	-0.2810641
241	0x3f0d7f53	0.55272406
242	0x3ec8d5d6	0.39225644
243	0x3e3fa971	0.1871698
244	0x3ee3f9a5	0.445264
245	0x3f665872	0.89978707
246	0x3ec76037	0.38940594
247	0xbf09cca6	-0.53827894
248	0x3da9b402	0.08286287
249	0x3ebfd5cb	0.374678
250	0x3f2ca080	0.67432404
251	0x3eb0f518	0.34561992
252	0xbe7fcd1c	-0.24980587
253	0xbc2526d3	-0.010080057
254	0xbd64679d	-0.055762876
255	0x3e31a3a3	0.17347579

sequential/dense_1/MatMul i1 [120, 18] scale=0.010050853 zero_point=0
0	0xf5	-0.11055938
1	0xf6	-0.100508526
2	0xeb	-0.21106791
3	0xeb	-0.21106791
4	0x08	0.08040682
5	0x01	0.010050853
6	0xf8	-0.08040682
7	0x14	0.20101705
8	0xff	-0.010050853
9	0xfa	-0.06030512
10	0xf6	-0.100508526
11	0x0b	0.11055938
12	0x11	0.1708645
13	0xed	-0.1909662
14	0xf2	-0.14071193
15	0x20	0.3216273
16	0x00	0.0
17	0x0a	0.100508526
18	0xda	-0.3819324
19	0x0c	0.12061024
20	0xf8	-0.08040682
21	0x0f	0.1507628
22	0xf3	-0.13066109
23	0x4f	0.7940174
24	0xe8	-0.24122047
25	0x14	0.20101705
26	0xd3	-0.4522884
27	0x0f	0.1507628
28	0xfa	-0.06030512
29	0x22	0.341729
30	0xee	-0.18091536
31	0xef	-0.1708645
32	0x16	0.22111876
33	0xe3	-0.29147473
34	0xf7	-0.09045768
35	0xe3	-0.29147473
36	0x0d	0.13066109
37	0xd5	-0.43218666
38	0x0c	0.12061024
39	0x0d	0.13066109
40	0x01	0.010050853
41	0x15	0.21106791
42	0x19	0.2512713
43	0xe7	-0.2512713
44	0x0f	0.1507628
45	0xee	-0.18091536
46	0xe9	-0.23116961
47	0xfd	-0.03015256
48	0x13	0.1909662
49	0xf1	-0.1507628
50	0x0c	0.12061024
51	0xea	-0.22111876
52	0xfb	-0.050254263
53	0x0e	0.14071193
54	0xf8	-0.08040682
55	0xfe	-0.020101706
56	0x09	0.09045768
57	0xe3	-0.29147473
58	0x17	0.23116961
59	0xe9	-0.23116961
60	0x13	0.1909662
61	0xf5	-0.11055938
62	0x23	0.35177985
63	0x11	0.1708645
64	0xf3	-0.13066109
65	0x04	0.04020341
66	0x30	0.48244095
67	0xe6	-0.26132217
68	0xfe	-0.020101706
69	0xf2	-0.14071193
70	0x01	0.010050853
71	0xfe	-0.020101706
72	0xf7	-0.09045768
73	0xfd	-0.03015256
74	0x00	0.0
75	0x11	0.1708645
76	0xfa	-0.06030512
77	0x1b	0.27137303
78	0xf9	-0.07035597
79	0xfb	-0.050254263
80	0xe8	-0.24122047
81	0x3f	0.63320374
82	0xfc	-0.04020341
83	0x1c	0.28142387
84	0x19	0.2512713
85	0xf4	-0.12061024
86	0x05	0.050254263
87	0xcb	-0.5326952
88	0xf8	-0.08040682
89	0xe7	-0.2512713
90	0xfe	-0.020101706
91	0x15	0.21106791
92	0xfb	-0.050254263
93	0xf6	-0.100508526
94	0x20	0.3216273
95	0x01	0.010050853
96	0xe7	-0.2512713
97	0x0e	0.14071193
98	0x0e	0.14071193
99	0xf5	-0.11055938
100	0x01	0.010050853
101	0x01	0.010050853
102	0xf2	-0.14071193
103	0x13	0.1909662
104	0x14	0.20101705
105	0x0e	0.14071193
106	0xfa	-0.06030512
107	0x0a	0.100508526
108	0xfd	-0.03015256
109	0x0d	0.13066109
110	0x04	0.04020341
111	0x15	0.21106791
112	0xfd	-0.03015256
113	0xee	-0.18091536
114	0x0f	0.1507628
115	0xff	-0.010050853
116	0xf6	-0.100508526
117	0x16	0.22111876
118	0xed	-0.1909662
119	0x0f	0.1507628
120	0xf9	-0.07035597
121	0xff	-0.010050853
122	0xfa	-0.06030512
123	0xf6	-0.100508526
124	0x07	0.07035597
125	0xed	-0.1909662
126	0xfd	-0.03015256
127	0xeb	-0.21106791
128	0x15	0.21106791
129	0x10	0.16081364
130	0x01	0.010050853
131	0xdf	-0.33167815
132	0x13	0.1909662
133	0x06	0.06030512
134	0xec	-0.20101705
135	0xde	-0.341729
136	0x0e	0.14071193
137	0xe6	-0.26132217
138	0x19	0.2512713
139	0xe7	-0.2512713
140	0x0b	0.11055938
141	0x0e	0.14071193
142	0x10	0.16081364
143	0x0e	0.14071193
144	0x13	0.1909662
145	0xfc	-0.04020341
146	0xff	-0.010050853
147	0xf1	-0.1507628
148	0x11	0.1708645
149	0xf0	-0.16081364
150	0xf9	-0.07035597
151	0x08	0.08040682
152	0xf8	-0.08040682
153	0xf7	-0.09045768
154	0x16	0.22111876
155	0xf7	-0.09045768
156	0x04	0.04020341
157	0x0f	0.1507628
158	0xff	-0.010050853
159	0x07	0.07035597
160	0xfc	-0.04020341
161	0x07	0.07035597
162	0x01	0.010050853
163	0x28	0.4020341
164	0xec	-0.20101705
165	0xf7	-0.09045768
166	0xfc	-0.04020341
167	0x0f	0.1507628
168	0x11	0.1708645
169	0x16	0.22111876
170	0x08	0.08040682
171	0xf4	-0.12061024
172	0xff	-0.010050853
173	0x07	0.07035597
174	0xf1	-0.1507628
175	0xf3	-0.13066109
176	0x0a	0.100508526
177	0xf7	-0.09045768
178	0xfe	-0.020101706
179	0xe3	-0.29147473
180	0xef	-0.1708645
181	0x0b	0.11055938
182	0x02	0.020101706
183	0x20	0.3216273
184	0xfc	-0.04020341
185	0xf2	-0.14071193
186	0xee	-0.18091536
187	0x01	0.010050853
188	0xcf	-0.49249178
189	0x01	0.010050853
190	0xf7	-0.09045768
191	0x0d	0.13066109
192	0xeb	-0.21106791
193	0x03	0.03015256
194	0xf0	-0.16081364
195	0x0a	0.100508526
196	0x11	0.1708645
197	0x0d	0.13066109
198	0xea	-0.22111876
199	0x3d	0.613102
200	0x16	0.22111876
201	0x15	0.21106791
202	0xf7	-0.09045768
203	0x2b	0.43218666
204	0xfc	-0.04020341
205	0x0b	0.11055938
206	0xcb	-0.5326952
207	0xed	-0.1909662
208	0x11	0.1708645
209	0xf5	-0.11055938
210	0xee	-0.18091536
211	0x16	0.22111876
212	0xfc	-0.04020341
213	0x12	0.18091536
214	0xfe	-0.020101706
215	0xe3	-0.29147473
216	0xda	-0.3819324
217	0x1f	0.31157643
218	0xe1	-0.31157643
219	0xef	-0.1708645
220	0xca	-0.54274607
221	0x10	0.16081364
222	0xf5	-0.11055938
223	0xf3	-0.13066109
224	0x18	0.24122047
225	0x0c	0.12061024
226	0x02	0.020101706
227	0x12	0.18091536
228	0xd8	-0.4020341
229	0xe7	-0.2512713
230	0xf5	-0.11055938
231	0x1a	0.26132217
232	0x12	0.18091536
233	0xe3	-0.29147473
234	0x05	0.050254263
235	0x0b	0.11055938
236	0xfd	-0.03015256
237	0xfb	-0.050254263
238	0x07	0.07035597
239	0xfb	-0.050254263
240	0x07	0.07035597
241	0xf4	-0.12061024
242	0xf6	-0.100508526
243	0xf3	-0.13066109
244	0xc5	-0.5930003
245	0xee	-0.18091536
246	0xe7	-0.2512713
247	0xed	-0.1909662
248	0x06	0.06030512
249	0x14	0.20101705
250	0xf0	-0.16081364
251	0xeb	-0.21106791
252	0xfa	-0.06030512
253	0xeb	-0.21106791
254	0xe8	-0.24122047
255	0xf5	-0.11055938

sequential/dense_2/MatMul i1 [17, 120] scale=0.018359074 zero_point=0
0	0x03	0.055077225
1	0x00	0.0
2	0x03	0.055077225
3	0xf1	-0.27538612
4	0x16	0.40389964
5	0xfc	-0.0734363
6	0xfb	-0.09179537
7	0xe8	-0.4406178
8	0x05	0.09179537
9	0x02	0.03671815
10	0x0f	0.27538612
11	0x03	0.055077225
12	0xfc	-0.0734363
13	0xf2	-0.25702703
14	0xfc	-0.0734363
15	0x07	0.12851351
16	0x0c	0.2203089
17	0xfa	-0.11015445
18	0xda	-0.6976448
19	0xda	-0.6976448
20	0x07	0.12851351
21	0xff	-0.018359074
22	0xf5	-0.20194982
23	0xf2	-0.25702703
24	0xfa	-0.11015445
25	0x09	0.16523167
26	0x07	0.12851351
27	0x0e	0.25702703
28	0x03	0.055077225
29	0x05	0.09179537
30	0xf0	-0.2937452
31	0x14	0.36718148
32	0x04	0.0734363
33	0xf9	-0.12851351
34	0xf1	-0.27538612
35	0xf2	-0.25702703
36	0x0b	0.20194982
37	0xf6	-0.18359074
38	0xfb	-0.09179537
39	0x15	0.38554057
40	0xf7	-0.16523167
41	0xf3	-0.23866796
42	0x03	0.055077225
43	0xfc	-0.0734363
44	0xfa	-0.11015445
45	0xe9	-0.4222587
46	0x0c	0.2203089
47	0xf9	-0.12851351
48	0x0c	0.2203089
49	0xef	-0.31210425
50	0xea	-0.40389964
51	0x06	0.11015445
52	0xfa	-0.11015445
53	0xfd	-0.055077225
54	0x05	0.09179537
55	0x0b	0.20194982
56	0x00	0.0
57	0xfc	-0.0734363
58	0xfc	-0.0734363
59	0x05	0.09179537
60	0xf4	-0.2203089
61	0x07	0.12851351
62	0xfd	-0.055077225
63	0x09	0.16523167
64	0xf3	-0.23866796
65	0xf8	-0.1468726
66	0xf4	-0.2203089
67	0xfe	-0.03671815
68	0xe7	-0.45897686
69	0xff	-0.018359074
70	0xf6	-0.18359074
71	0x06	0.11015445
72	0xf4	-0.2203089
73	0x08	0.1468726
74	0x0c	0.2203089
75	0x03	0.055077225
76	0xfe	-0.03671815
77	0x04	0.0734363
78	0xb1	-1.4503669
79	0xf6	-0.18359074
80	0x13	0.3488224
81	0x0d	0.23866796
82	0x00	0.0
83	0xec	-0.36718148
84	0x00	0.0
85	0x14	0.36718148
86	0xe8	-0.4406178
87	0xf9	-0.12851351
88	0xfc	-0.0734363
89	0x25	0.67928576
90	0x00	0.0
91	0x02	0.03671815
92	0xee	-0.33046335
93	0x01	0.018359074
94	0xa6	-1.6523167
95	0xf2	-0.25702703
96	0x0e	0.25702703
97	0xef	-0.31210425
98	0x09	0.16523167
99	0x0b	0.20194982
100	0xf3	-0.23866796
101	0x08	0.1468726
102	0x0a	0.18359074
103	0xfc	-0.0734363
104	0xf3	-0.23866796
105	0x03	0.055077225
106	0xde	-0.6242085
107	0xec	-0.36718148
108	0xf1	-0.27538612
109	0xfa	-0.11015445
110	0xd3	-0.82615834
111	0x07	0.12851351
112	0xeb	-0.38554057
113	0xfa	-0.11015445
114	0xcb	-0.9730309
115	0x0c	0.2203089
116	0x03	0.055077225
117	0xf7	-0.16523167
118	0xf7	-0.16523167
119	0x09	0.16523167
120	0x03	0.055077225
121	0xfd	-0.055077225
122	0xf7	-0.16523167
123	0x05	0.09179537
124	0x11	0.31210425
125	0x04	0.0734363
126	0x01	0.018359074
127	0xfb	-0.09179537
128	0x09	0.16523167
129	0x07	0.12851351
130	0x0e	0.25702703
131	0xf7	-0.16523167
132	0xf6	-0.18359074
133	0x05	0.09179537
134	0x0d	0.23866796
135	0xfa	-0.11015445
136	0xfb	-0.09179537
137	0xfa	-0.11015445
138	0xd5	-0.7894402
139	0x0c	0.2203089
140	0x08	0.1468726
141	0x00	0.0
142	0x00	0.0
143	0x0b	0.20194982
144	0xff	-0.018359074
145	0x05	0.09179537
146	0xfb	-0.09179537
147	0xf5	-0.20194982
148	0xff	-0.018359074
149	0xf1	-0.27538612
150	0xfd	-0.055077225
151	0xfa	-0.11015445
152	0xfe	-0.03671815
153	0x03	0.055077225
154	0xf0	-0.2937452
155	0xde	-0.6242085
156	0xe1	-0.5691313
157	0xf5	-0.20194982
158	0x14	0.36718148
159	0x0d	0.23866796
160	0x08	0.1468726
161	0x02	0.03671815
162	0xfc	-0.0734363
163	0x07	0.12851351
164	0x06	0.11015445
165	0xee	-0.33046335
166	0xfe	-0.03671815
167	0xf9	-0.12851351
168	0xe6	-0.47733593
169	0xff	-0.018359074
170	0xfa	-0.11015445
171	0x0a	0.18359074
172	0xf6	-0.18359074
173	0xf3	-0.23866796
174	0x15	0.38554057
175	0x18	0.4406178
176	0xf7	-0.16523167
177	0x06	0.11015445
178	0x01	0.018359074
179	0xd8	-0.73436296
180	0x0e	0.25702703
181	0x04	0.0734363
182	0x07	0.12851351
183	0xfd	-0.055077225
184	0x0a	0.18359074
185	0x02	0.03671815
186	0x09	0.16523167
187	0xfa	-0.11015445
188	0xfa	-0.11015445
189	0x03	0.055077225
190	0x0a	0.18359074
191	0xf4	-0.2203089
192	0x17	0.4222587
193	0x09	0.16523167
194	0xf5	-0.20194982
195	0xf8	-0.1468726
196	0x01	0.018359074
197	0x07	0.12851351
198	0xc5	-1.0831854
199	0xfd	-0.055077225
200	0xfd	-0.055077225
201	0xe4	-0.51405406
202	0x12	0.33046335
203	0x10	0.2937452
204	0x04	0.0734363
205	0x2a	0.77108115
206	0x04	0.0734363
207	0x04	0.0734363
208	0xfc	-0.0734363
209	0xba	-1.2851351
210	0x01	0.018359074
211	0xf5	-0.20194982
212	0xfd	-0.055077225
213	0x01	0.018359074
214	0x11	0.31210425
215	0x12	0.33046335
216	0xd9	-0.7160039
217	0xff	-0.018359074
218	0x17	0.4222587
219	0x02	0.03671815
220	0x04	0.0734363
221	0xef	-0.31210425
222	0xe7	-0.45897686
223	0x12	0.33046335
224	0x05	0.09179537
225	0xde	-0.6242085
226	0xe0	-0.5874904
227	0x08	0.1468726
228	0x09	0.16523167
229	0xfb	-0.09179537
230	0x05	0.09179537
231	0xf9	-0.12851351
232	0x13	0.3488224
233	0xfb	-0.09179537
234	0xd5	-0.7894402
235	0xf9	-0.12851351
236	0xe4	-0.51405406
237	0xf8	-0.1468726
238	0xf9	-0.12851351
239	0x11	0.31210425
240	0xff	-0.018359074
241	0x16	0.40389964
242	0xf9	-0.12851351
243	0xf8	-0.1468726
244	0xe3	-0.5324132
245	0x08	0.1468726
246	0xfd	-0.055077225
247	0xef	-0.31210425
248	0x02	0.03671815
249	0xfc	-0.0734363
250	0xdc	-0.6609267
251	0x21	0.60584944
252	0x0f	0.27538612
253	0xf1	-0.27538612
254	0xfe	-0.03671815
255	0xfe	-0.03671815

sequential/dense_1/MatMul;sequential/dense_1/Relu;sequential/dense_1/BiasAdd f4 [120]
0	0x3e6f3596	0.23360285
1	0xbe3ca040	-0.18420506
2	0xbe79d976	-0.24399361
3	0x3c5f98f9	0.013647311
4	0xbe56fb56	-0.20994315
5	0x3e9bfdb4	0.30466998
6	0xbc6b5852	-0.014364319
7	0xbe1639ae	-0.1467044
8	0x3e19d8d4	0.1502412
9	0xb9b906cc	-0.00035291014
10	0x3cf086ef	0.029361216
11	0x3e210a4d	0.15726586
12	0x3e2623a4	0.16224533
13	0xbe905c4d	-0.2819542
14	0x3dde942e	0.10868107
15	0xbe85c5c5	-0.2612745
16	0xbe2c77af	-0.1684253
17	0xb8b5b807	-8.66503e-05
18	0x3ebdbb59	0.37056997
19	0x3c69ea72	0.0142770875
20	0xbd28497b	-0.0410857
21	0x3d5d7da4	0.0540749
22	0xbe617d22	-0.2202039
23	0x3c85314b	0.016258856
24	0x3cad9b9d	0.021192366
25	0xbe811fa8	-0.25219464
26	0xbe47a251	-0.19495513
27	0xbcc62307	-0.024186624
28	0x3bac0e22	0.005250708
29	0xbecffd4b	-0.40622935
30	0x3c8750f1	0.016518088
31	0xbd4623e6	-0.04837408
32	0x3dc1aa30	0.09456289
33	0x3e0aa09f	0.13537835
34	0x3de4d80e	0.11174022
35	0xbcc139ac	-0.02358707
36	0xbe9bb053	-0.30407962
37	0xbdfcceb8	-0.12344116
38	0x3eb64147	0.35596678
39	0xbed164f8	-0.40897346
40	0x3d3c8bbb	0.046031695
41	0xbd7b735a	-0.061389305
42	0xbe70cb59	-0.23515071
43	0xbdcdd550	-0.10050452
44	0x3df86e38	0.121303976
45	0x3de95056	0.11392276
46	0xbe4403fb	-0.19142143
47	0x3dc1511c	0.094392985
48	0x3f16eeee	0.5895833
49	0xbe28173d	-0.16415115
50	0x3deb288c	0.11482343
51	0x3db3d288	0.0878039
52	0xbbc78012	-0.006088265
53	0xbe2db925	-0.16965158
54	0xbca2ddf2	-0.019881222
55	0x3ed0016c	0.40626085
56	0x3e81d046	0.25354213
57	0x3d38e3df	0.04513919
58	0x3e6925f4	0.22768384
59	0xbd99f7f9	-0.07518
60	0x3d9898a8	0.07450992
61	0xbdbbb24e	-0.09164868
62	0x3e039fb8	0.12853897
63	0x3ce3364b	0.02773585
64	0x3e67b649	0.2262813
65	0x3d4d2ab4	0.050089553
66	0xbd78aad3	-0.060709786
67	0x3c6c9649	0.014440128
68	0x3e782918	0.24234426
69	0xbc2116a8	-0.009832062
70	0x3e4c4f22	0.19952062
71	0xbec21dc5	-0.37913337
72	0x3e366f78	0.1781596
73	0xbd006b39	-0.031352255
74	0x3e15bab2	0.14622
75	0xbe64b649	-0.22335161
76	0xbd8b77af	-0.06809937
77	0xbd7e1b86	-0.062037967
78	0x3ebae6ad	0.36504117
79	0x3e724b93	0.23661642
80	0xbb537f51	-0.0032271931
81	0x3e10abeb	0.14128082
82	0x3f08ab99	0.5338684
83	0x3e53e689	0.20693411
84	0x3d4c51b5	0.04988261
85	0x3bed99ee	0.007251016
86	0x3d857417	0.06516283
87	0xbd3acee2	-0.045607455
88	0x3e972daa	0.29527026
89	0xbe587daf	-0.21141694
90	0xbd3212c1	-0.043474916
91	0x3e8fdccf	0.2809815
92	0xbd7e07ac	-0.062019035
93	0x3e3bee2d	0.18352576
94	0x3f2b08e1	0.66810423
95	0xbc6ab7cd	-0.014326048
96	0xbcc3706b	-0.023857316
97	0x3e341aa5	0.17588289
98	0xbd9cfe97	-0.07665747
99	0x3bdf5e01	0.006816626
100	0x3e8d34f8	0.27579474
101	0xbea0e59b	-0.31425175
102	0x3e05473c	0.13015455
103	0xbe914793	-0.2837492
104	0x3e9c2dbc	0.30503643
105	0xbe941449	-0.28921726
106	0x3ea1952c	0.31559122
107	0x3eba82d5	0.36427942
108	0x3e84829d	0.258809
109	0xbe225a93	-0.15854864
110	0x3f110e0c	0.5666206
111	0xbdad3dbc	-0.084590405
112	0x3f0b6a24	0.5445883
113	0xbed755ed	-0.42057744
114	0xbde9dbea	-0.114188984
115	0xbe36f743	-0.1786776
116	0xbeb05ee1	-0.34447387
117	0xbdbd76b9	-0.0925116
118	0xbc1db34f	-0.00962527
119	0x3d8483d5	0.064704575
